checkpoints/CNNAutoencoder/model_epoch_10.pth (torch, 305186 bytes, 11 tensors)

encoder.0.weight f4 [16, 1, 129, 7]
0	0xbdaa7f10	-0.083250165
1	0xbda5425c	-0.08069298
2	0xbd8a5484	-0.06754401
3	0xbd30c214	-0.043153837
4	0xbdc765ad	-0.0973619
5	0xbd253386	-0.04033234
6	0xbdbb4db6	-0.091456816
7	0xbdcc12e1	-0.09964538
8	0xbd0a1f57	-0.033721294
9	0xbd8085db	-0.06275531
10	0xbdb4428b	-0.088017546
11	0xbd632412	-0.05545432
12	0xbd963ebf	-0.073361866
13	0xbdbbd9f5	-0.091724314
14	0xbd8296a3	-0.06376388
15	0xbd13dbf2	-0.036098428
16	0xbd7c4760	-0.061591506
17	0xbda32054	-0.079651505
18	0xbd905224	-0.07046917
19	0xbd1d1a77	-0.038355317
20	0xbdb2f93e	-0.087389454
21	0xbdaf4fef	-0.08560168
22	0xbdbe6078	-0.09295744
23	0xbda0e8f1	-0.0785693
24	0xbd8683fd	-0.065681435
25	0xbda5e2f2	-0.08099927
26	0xbd90e196	-0.07074277
27	0xbdbc18ef	-0.09184443
28	0xbdac518f	-0.084139936
29	0xbdcca2c6	-0.09991984
30	0xbd2f8b51	-0.04285747
31	0xbd5faddd	-0.05460917
32	0xbd11f0d8	-0.035630077
33	0xbd212a2a	-0.03934685
34	0xbd8a691f	-0.067583315
35	0xbd15c1d0	-0.036561787
36	0xbdb0e9c0	-0.08638334
37	0xbd8f675e	-0.070021376
38	0xbd4aca84	-0.04950954
39	0xbd347a4c	-0.044061944
40	0xbdb5a513	-0.08869376
41	0xbd09c957	-0.03363928
42	0xbd5d3222	-0.05400289
43	0xbd496536	-0.049168788
44	0xbd1032eb	-0.03520481
45	0xbda3c2af	-0.07996117
46	0xbd25ef86	-0.04051163
47	0xbda15779	-0.07878012
48	0xbd243cdf	-0.040097114
49	0xbd2b2573	-0.04178376
50	0xbdc170b5	-0.09445325
51	0xbd90693a	-0.070513204
52	0xbd7c83fb	-0.061649304
53	0xbd6f4f8c	-0.05842547
54	0xbda2b20b	-0.07944115
55	0xbd88bd25	-0.066767015
56	0xbdbdb233	-0.092625044
57	0xbd981477	-0.07425778
58	0xbda53c41	-0.08068133
59	0xbd8bd24f	-0.068272226
60	0xbd50ae89	-0.0509477
61	0xbd5c056f	-0.05371612
62	0xbda32eb1	-0.0796789
63	0xbd8b4363	-0.06799962
64	0xbdb1bab6	-0.086781904
65	0xbd90635a	-0.070502
66	0xbdb34215	-0.087528385
67	0xbd18cac6	-0.037302755
68	0xbd33da73	-0.0439095
69	0xbda8c148	-0.082399905
70	0xbdac7b60	-0.084219694
71	0xbdb08df8	-0.086208284
72	0xbd43ba60	-0.047785163
73	0xbd9aa230	-0.07550466
74	0xbdb13b71	-0.08653916
75	0xbd6c7d35	-0.057736594
76	0xbd700516	-0.0585986
77	0xbdb8feb8	-0.09032959
78	0xbdae10bf	-0.08499288
79	0xbd05a13b	-0.032624464
80	0xbdaa5337	-0.08316653
81	0xbd93ecf0	-0.072229266
82	0xbd0eba3a	-0.03484557
83	0xbd5433dd	-0.051807273
84	0xbda37cbf	-0.07982778
85	0xbda983ce	-0.08277093
86	0xbd3891a7	-0.04506078
87	0xbdb29c41	-0.08721209
88	0xbdb4d1e5	-0.08829097
89	0xbd9ad152	-0.07559456
90	0xbdc59b88	-0.09648806
91	0xbdb5be67	-0.08874207
92	0xbd4eedfa	-0.05051992
93	0xbd505bcc	-0.050868794
94	0xbd834d04	-0.06411174
95	0xbdb5a196	-0.08868711
96	0xbd2aa959	-0.04166541
97	0xbd221b84	-0.039577022
98	0xbcbaa8b4	-0.022785522
99	0xbd538ab5	-0.051645953
100	0xbda207cd	-0.07911644
101	0xbd8264df	-0.06366896
102	0xbd3caede	-0.046065204
103	0xbd9ab43a	-0.07553907
104	0xbd83ba43	-0.06432011
105	0xbd82c47a	-0.06385131
106	0xbd5c4feb	-0.053787153
107	0xbd64344b	-0.055713933
108	0xbd35be9d	-0.044371236
109	0xbdc9d5b3	-0.09855213
110	0xbdbe726c	-0.09299168
111	0xbce1f493	-0.027582442
112	0xbcf09f2b	-0.029372772
113	0x3c5d399e	0.013502507
114	0xbd9d91ec	-0.07693848
115	0xbcd3c36b	-0.025850018
116	0xbcd9a116	-0.02656607
117	0xbd47dd36	-0.048794948
118	0xbca2557e	-0.019816156
119	0xbb8acecc	-0.004236078
120	0xbcf8bf54	-0.03036467
121	0x3cd76a16	0.026295703
122	0xbcac41cc	-0.021027468
123	0xbd6c4f7f	-0.057693
124	0xbd4caa6c	-0.049967214
125	0xbd0a53d6	-0.03377136
126	0xbc834a79	-0.016026722
127	0xbc5f5c75	-0.013632883
128	0xbc0a0a1d	-0.008425263
129	0x3c972889	0.018451946
130	0x3c8ec576	0.017428141
131	0x3c25cb17	0.010119221
132	0xba8cd883	-0.0010745678
133	0x3c5a957f	0.013341307
134	0x3bbdbbb8	0.0057902
135	0x3ce6176e	0.028087344
136	0x3ca115b9	0.019663678
137	0x3c6858eb	0.014181356
138	0x3bbdb83a	0.005789784
139	0xbc19cf65	-0.009387826
140	0x3cc5cf45	0.024146685
141	0x3b7de84e	0.00387432
142	0x3c9ce61d	0.019152695
143	0x3b53c4ae	0.0032313275
144	0x3d306e8c	0.043074176
145	0x39f02dda	0.0004581053
146	0x3b64ad22	0.0034893234
147	0x3b459c1f	0.003015287
148	0x3cebfc93	0.02880696
149	0x3d5449a7	0.051828053
150	0x3d2e0b84	0.04249145
151	0x3d0a1cd7	0.03371891
152	0x3cd8a71c	0.026446871
153	0x3cddffa0	0.02709943
154	0x3d20ae69	0.03922883
155	0x3d1b78ee	0.037957124
156	0x3d271dd3	0.040799927
157	0xbc43a565	-0.011941289
158	0x3ce4ad46	0.027914654
159	0x3ca0ef15	0.019645253
160	0xbbc2f566	-0.005949664
161	0x3d4e0301	0.050295833
162	0x3d2ef90d	0.042717982
163	0x3cea539e	0.028604325
164	0x3d96fe09	0.07372672
165	0x3d052802	0.032508858
166	0x3d4639d6	0.048395
167	0x3d369702	0.044577606
168	0x3c6bad00	0.014384508
169	0x3ccad8f7	0.02476166
170	0x3d726604	0.05917932
171	0x3d2c124a	0.04200963
172	0x3d11290b	0.035439532
173	0x3c98abe1	0.018636646
174	0x3d36be84	0.044615284
175	0x3d90ffe4	0.07080057
176	0x3d3891a7	0.04506078
177	0x3d53e1ff	0.0517292
178	0x3c34fb84	0.011046294
179	0x3d636613	0.055517267
180	0x3d308814	0.043098524
181	0x3c86b2b3	0.016442632
182	0x3c0c6e8c	0.008571278
183	0xbb6548b2	-0.0034985957
184	0x3ce7a29f	0.028275786
185	0x3c6e773f	0.014554798
186	0x3c9938fc	0.01870393
187	0xbd0adcbb	-0.03390191
188	0xbccc6224	-0.02494914
189	0xbb431c7a	-0.0029771612
190	0x3c2bda7a	0.010489101
191	0x3cf76196	0.0301979
192	0xbab672ab	-0.0013919672
193	0xbc798f90	-0.015231982
194	0x3c5dfc17	0.013548872
195	0xbca3d116	-0.01999716
196	0x3c2b3990	0.010450736
197	0xbbf39ce0	-0.0074344724
198	0x3ba1666b	0.0049255393
199	0x3c8f571a	0.017497588
200	0xb8fd941c	-0.000120915676
201	0x3be1d58c	0.006891912
202	0x38de3677	0.0001059593
203	0x3a258c4a	0.0006315155
204	0xbc0c2cf2	-0.008555638
205	0x3d081fb8	0.033233374
206	0x3c9610fa	0.018318642
207	0x3c459a89	0.01206077
208	0xbbc5a7f8	-0.0060319863
209	0x3ca73746	0.020412099
210	0xbcfe70b0	-0.031059593
211	0x3cddcb8a	0.027074594
212	0xbc192498	-0.009347104
213	0xbc0eeb46	-0.008723086
214	0xbc6098bd	-0.013708291
215	0xbcc33f92	-0.023834024
216	0xbd273db8	-0.040830344
217	0x3d08ca34	0.03339596
218	0x3c54ae48	0.012981005
219	0x3cd548cb	0.026035687
220	0xbcad4357	-0.021150274
221	0x3b44fa50	0.0030056424
222	0xbcd9a116	-0.02656607
223	0x3ccf2bea	0.025289495
224	0xbca74768	-0.020419791
225	0xbccb85fe	-0.024844166
226	0x3cb0f294	0.021600045
227	0xbb968891	-0.0045939167
228	0x3c25a805	0.01011086
229	0xba4028c6	-0.00073302945
230	0xbc85091a	-0.016239692
231	0x3c38366c	0.011243444
232	0x3b9ebdcb	0.0048444024
233	0x3c2d883d	0.010591564
234	0x3c69e060	0.014274687
235	0x3838b806	4.4040404e-05
236	0x3c8a419d	0.01687699
237	0xbb9f88e4	-0.0048686136
238	0x3c0def52	0.008663015
239	0x3c930c11	0.01795009
240	0xbb5ba939	-0.0033517613
241	0xbcb355a0	-0.021891415
242	0x3caf86b5	0.021426538
243	0xbba6e0af	-0.0050927023
244	0x3d1b0020	0.037841916
245	0xbc5127ca	-0.012765834
246	0x3a0793dc	0.0005171874
247	0xbca8c885	-0.020603428
248	0x3c19eb48	0.009394474
249	0xbc163755	-0.009168466
250	0xbb4a35bb	-0.003085478
251	0x3ce89379	0.028390633
252	0x3ca17e42	0.019713525
253	0xbd3d4b6e	-0.046214513
254	0x3cbb03cc	0.022828959
255	0x3d0b1771	0.033957902

encoder.0.bias f4 [16]
0	0x3e0a0067	0.13476716
1	0x3dd75c43	0.105156444
2	0x3db9c5ca	0.090709284
3	0x3dd9f269	0.10641939
4	0x3e037fae	0.12841675
5	0x3de8ac78	0.11361021
6	0x3df46310	0.11932957
7	0xbd852dd3	-0.06502881
8	0x3db4e473	0.08832636
9	0x3db3afd7	0.08773773
10	0x3db0c052	0.08630432
11	0x3dd6bf43	0.10485699
12	0x3d8d8455	0.06910006
13	0x3de33c6c	0.11095509
14	0x3e18e098	0.14929426
15	0x3d9f1e7d	0.07769487

encoder.2.weight f4 [32, 16, 3, 3]
0	0x3c9a52c6	0.018838298
1	0xbd2829ee	-0.041055612
2	0xba73df56	-0.0009302994
3	0x3d9151d9	0.07095689
4	0x3ca37714	0.019954242
5	0x3d1e6ddd	0.038678993
6	0x3c1b45c0	0.009477079
7	0x3d21d33b	0.039508086
8	0xbc3bfbcb	-0.011473606
9	0x3c4af46b	0.012387375
10	0x3d8d083e	0.06886338
11	0xbc9ef4b0	-0.019403785
12	0x3c94a5c9	0.018145459
13	0xbbecc774	-0.007225925
14	0xbb22de2d	-0.0024851665
15	0xbd4b2366	-0.049594305
16	0x3c9c1f90	0.019058019
17	0x3c980c96	0.018560689
18	0xbc650dd6	-0.0139803495
19	0xbca61c70	-0.020277232
20	0x3d8dd1d8	0.0692479
21	0x3dd2e7b4	0.102981
22	0x3d3e6eac	0.046492264
23	0xbc428113	-0.011871594
24	0x3d59f523	0.053212296
25	0x3d9092bf	0.070592396
26	0xbb4cbe2b	-0.0031241279
27	0x3d21e633	0.039526176
28	0x3da6b73f	0.0814042
29	0xbd3fd2f3	-0.046832036
30	0x3d6e55d3	0.058187317
31	0x3d05fce2	0.03271187
32	0xbd15181c	-0.036399946
33	0xbd013f38	-0.03155443
34	0x3d327e98	0.04357776
35	0x3ceef060	0.029167354
36	0xbda381b6	-0.07983725
37	0x3d3220cb	0.043488305
38	0x3d91f426	0.07126646
39	0x3d819f8a	0.06329258
40	0x3dae5592	0.08512415
41	0x3d5dc5f8	0.054143876
42	0xbc41baab	-0.01182429
43	0x3c7d0aab	0.015444438
44	0x3d230b93	0.03980596
45	0xbd1c817b	-0.03820942
46	0xbda842ae	-0.08215843
47	0x3b7069ab	0.0036684077
48	0x3bca0164	0.0061647166
49	0x3d568444	0.052372232
50	0x3df43ed4	0.11926046
51	0xbd9dd7f3	-0.07707205
52	0xbcf8ca60	-0.030369937
53	0x3d87bc5c	0.066277236
54	0xbd893ab7	-0.06700652
55	0x3da3406c	0.07971272
56	0xbd9ac870	-0.07557762
57	0xbbbef8ab	-0.0058279834
58	0xbbd406e4	-0.006470548
59	0x3dcfdf29	0.10149986
60	0x3d20bbde	0.039241664
61	0x3cbe4260	0.02322501
62	0xbd1ccafb	-0.038279515
63	0xbd0e7b40	-0.03478551
64	0x3c8dfd50	0.017332703
65	0x3da00950	0.07814276
66	0xbf01113b	-0.50416917
67	0xbef82972	-0.4846912
68	0xbf188428	-0.59576654
69	0x3b61f9ab	0.003448109
70	0xbd673846	-0.05645015
71	0xbda9d7a0	-0.0829308
72	0x396e3000	0.0002271533
73	0xbd6b1643	-0.057394277
74	0xbb4afb80	-0.003097266
75	0x3e09801e	0.13427779
76	0xbc5de7da	-0.013544047
77	0xbb2ef350	-0.0026695319
78	0x3d8542fb	0.06506916
79	0xbd30f026	-0.043197773
80	0xbca6c4e6	-0.02035756
81	0x3d50801b	0.05090342
82	0xbd791083	-0.060806762
83	0x3d267e8e	0.040648036
84	0x3d4912cc	0.04909019
85	0x3d9e195a	0.07719679
86	0x3d85de07	0.06536489
87	0xbd63cd53	-0.055615734
88	0x3cb8429b	0.022492697
89	0xbcaab726	-0.020839285
90	0xbcf35a36	-0.029706102
91	0xbd9d76d2	-0.07688679
92	0x39e76c00	0.0004414022
93	0xbd31f731	-0.04344863
94	0x3d0ae1df	0.033906814
95	0x3deab6a0	0.11460614
96	0xbc9a78ab	-0.018856367
97	0xbc79282b	-0.015207331
98	0x3d9edf82	0.077574745
99	0x3d951aa3	0.07280471
100	0xbc940606	-0.018069278
101	0xbd995b9c	-0.07488176
102	0x3db18447	0.08667808
103	0x3d1a3c00	0.037654877
104	0xbd0cae59	-0.03434596
105	0x3d9e3354	0.07724634
106	0x3cf647bb	0.0300635
107	0x3d879fb6	0.06622259
108	0x3da18514	0.07886711
109	0xbce0aa80	-0.02742505
110	0x3cb595a6	0.022166084
111	0x3c060e4c	0.00818212
112	0xbb289b9c	-0.0025727516
113	0x3cfa7484	0.030573137
114	0x3d6dea03	0.0580845
115	0x3cf5ed96	0.030020516
116	0xbc49fa0b	-0.012327681
117	0xbc46756b	-0.012112956
118	0x3d985ae4	0.07439211
119	0x3d867826	0.06565885
120	0x3cbbecb5	0.02294002
121	0x3dc0a3c9	0.094062395
122	0xbc9ebb10	-0.019376308
123	0x3c5279f6	0.012846461
124	0x3d07b418	0.033130735
125	0xbc0c01a0	-0.008545309
126	0xbbc8a1d6	-0.006122808
127	0x3c90a220	0.017655432
128	0x3cd0b0a0	0.025474846
129	0xbbe02b3a	-0.0068410905
130	0x3db4b85f	0.088242285
131	0x3e02451b	0.12721674
132	0xbd92fc24	-0.07176998
133	0xbcf44770	-0.02981922
134	0x3d2fe5a6	0.04294362
135	0x3d9a83fa	0.07544704
136	0xbd9cc4cb	-0.07654723
137	0x3d9d5a00	0.07683182
138	0x3da0d3c0	0.07852888
139	0x3c714492	0.014725821
140	0xbc1ee8e8	-0.009699084
141	0x3d237a80	0.039911747
142	0xbc480d76	-0.012210241
143	0x3cbb79e0	0.022885263
144	0x3d0eb31b	0.034838777
145	0x3d8407f2	0.06446828
146	0x3bfe346b	0.0077577136
147	0x3d751df4	0.05984302
148	0x3db7de04	0.08977893
149	0x3bb45dcb	0.005504345
150	0xbd58cbe0	-0.052928805
151	0x3bf8dcab	0.007594665
152	0x3d35dc66	0.04439964
153	0xbcb067ab	-0.021533808
154	0x3d9ce1e2	0.07660271
155	0x3da0de30	0.07854879
156	0x3d20d1e3	0.039262664
157	0x3dfc884e	0.123306856
158	0x3ceb7653	0.028742945
159	0x3d8d53e0	0.069007635
160	0x3d8da51b	0.06916257
161	0xbd992faf	-0.07479798
162	0xbda8bdd0	-0.08239329
163	0xbd8b8fe4	-0.06814554
164	0xbcf7f7cb	-0.030269524
165	0x3dfd1fec	0.12359604
166	0x3d3851a4	0.044999734
167	0x3d9ec143	0.077517055
168	0xbbeb9740	-0.0071896613
169	0xbc03c08b	-0.008041511
170	0x3c4dd9ab	0.012564103
171	0xbd7cdd8b	-0.061734717
172	0xbd89d983	-0.0673094
173	0x3d84aa80	0.06477833
174	0x3e072b7a	0.13200179
175	0x3c3b7b21	0.01144293
176	0x3d73816a	0.05944959
177	0xbbe136ab	-0.006872972
178	0x3d2b85d0	0.04187566
179	0xbd69ca83	-0.057077896
180	0x3d9bf8ff	0.076158516
181	0x3d030fe6	0.031997584
182	0xbd443816	-0.04790505
183	0x3daa5000	0.0831604
184	0x3e0b23bc	0.1358785
185	0x3da5e002	0.08099367
186	0x3d3a681b	0.04550944
187	0x3c7b0dab	0.015323083
188	0x3d405276	0.04695364
189	0xbda6e80a	-0.08149727
190	0x3ca28a46	0.019841325
191	0x3d5b3d80	0.053525448
192	0x3e0bd2e6	0.1365467
193	0x3db940e7	0.09045582
194	0x3d983c69	0.07433397
195	0x3c1ecad6	0.009691915
196	0xbd8b8264	-0.068119794
197	0xbd53fbbe	-0.051753752
198	0x3d8c928c	0.06863889
199	0x3d6bfe20	0.0576154
200	0xbd86d408	-0.065834105
201	0x3d56facb	0.05248527
202	0xbb9d6950	-0.004803814
203	0x3e07a2dc	0.1324572
204	0xbd9a59c3	-0.07536652
205	0xbd172c3e	-0.036907427
206	0xbd48819e	-0.048951738
207	0xbd2afcc0	-0.041744947
208	0xbd1302fb	-0.035891514
209	0xbd424d2e	-0.047436886
210	0xbdb1dd37	-0.086847715
211	0xbe1544dc	-0.14577049
212	0x3d59ea2e	0.053201847
213	0xbc9d71d6	-0.01921932
214	0x3da89874	0.08232203
215	0xbd2dbdf3	-0.042417478
216	0x3d39f946	0.04540374
217	0x3d79f313	0.06102283
218	0xbd8c303e	-0.06845139
219	0xbb7f7d2b	-0.0038984518
220	0xbcb6e0d3	-0.022324001
221	0x3d338651	0.043829266
222	0xbd1a8ba3	-0.037730824
223	0xbda9a62c	-0.08283648
224	0x3d202666	0.03909912
225	0x3d4adefb	0.049529057
226	0x3c80e730	0.015735239
227	0x3cbd4ee0	0.0231089
228	0x3cfdbec5	0.030974755
229	0x3c880695	0.016604701
230	0xbc1c2123	-0.009529385
231	0xbd8e80ac	-0.06958136
232	0xbc59c260	-0.0132909715
233	0x3d8a4c1c	0.06752798
234	0x3c697c8b	0.014250885
235	0x3ac56aab	0.0015061697
236	0x3d0a2d66	0.0337347
237	0x3d47db59	0.04879317
238	0xbc8d5ce5	-0.01725621
239	0xbccf9992	-0.025341783
240	0xbd944e2a	-0.07241471
241	0xbd647173	-0.055772256
242	0xbd83c62f	-0.06434285
243	0xbd93961e	-0.07206367
244	0x3d1d95c8	0.03847292
245	0x3cb10b8b	0.02161195
246	0x3c8d7a72	0.0172703
247	0xbc06add1	-0.008220152
248	0x3d0240c5	0.03180005
249	0xbd8d8e33	-0.06911888
250	0xbd525490	-0.051350176
251	0x3d520803	0.05127717
252	0xbd5dbc5b	-0.054134708
253	0xbd5f28d6	-0.054482304
254	0x3d248388	0.0401645
255	0x3de1789d	0.11009333

encoder.2.bias f4 [32]
0	0x3d21484e	0.039375596
1	0x3d43d2df	0.047808524
2	0x3dec8de6	0.115505025
3	0x3dc0a6a7	0.094067864
4	0x3c72f249	0.014828273
5	0x3dd05d5f	0.10174059
6	0x3d0fe269	0.03512803
7	0x3de2e377	0.11078542
8	0x3d22acf0	0.039715707
9	0x3cd7dfae	0.026351776
10	0x3cc46339	0.023973094
11	0x3da7a16b	0.08185085
12	0x3dce7d70	0.10082519
13	0x3c9ea170	0.019364089
14	0x3cb9d17d	0.0226829
15	0xba9b7fa1	-0.0011863598
16	0x3dd48a20	0.10377908
17	0x3afdd2ba	0.001936517
18	0x3d88e60d	0.06684504
19	0x3df0f059	0.11764593
20	0x3cbcbcab	0.023039183
21	0x3cef81e3	0.02923674
22	0x3d190836	0.037361346
23	0x3dacb3a5	0.08432702
24	0x3e09c5ac	0.13454312
25	0x3d7a44b0	0.06110066
26	0x3e0bd85d	0.13656755
27	0x3ca26545	0.01982368
28	0x3dff2bc3	0.12459519
29	0x3d84d15b	0.06485244
30	0x3cb53e7a	0.022124518
31	0x3caf6d17	0.021414323

encoder.4.weight f4 [64, 32, 3, 3]
0	0x3d0ce6ac	0.034399673
1	0x3d548687	0.051886108
2	0xba247a53	-0.0006274331
3	0xbd298b36	-0.041392528
4	0x3dc96f0b	0.09835633
5	0x3d8c7cdd	0.06859753
6	0xb933b915	-0.00017139719
7	0xbaa2f802	-0.0012433531
8	0x3d44bcd6	0.04803165
9	0xbc56d89f	-0.01311317
10	0x3cb9a082	0.022659544
11	0x3c103e88	0.008803971
12	0x3dbeccb7	0.0931639
13	0x3da7833d	0.081793286
14	0x3da8439a	0.08216019
15	0x3cb0e1f4	0.021592118
16	0xbbed7afb	-0.0072473264
17	0x3d268ec8	0.04066351
18	0x3c32d519	0.010915064
19	0x3ab6a4bb	0.0013934592
20	0x3d526a1b	0.05137072
21	0x3c520c19	0.012820267
22	0x3cc2545d	0.023721868
23	0x3d947ea9	0.07250721
24	0xbb198267	-0.0023423673
25	0xba82b6e3	-0.0009972717
26	0x3b382748	0.0028099585
27	0xbcd6b1dd	-0.026207859
28	0xbd1bfc1a	-0.03808222
29	0x3c93bb10	0.018033534
30	0x3d0b55d8	0.034017414
31	0x3d2dc57c	0.042424664
32	0x3d4cc6cd	0.04999428
33	0xbcd5ceed	-0.026099646
34	0xbbc127be	-0.00589463
35	0x3d435ac1	0.04769397
36	0xbcd96864	-0.026539035
37	0xbbc0284d	-0.005864179
38	0xbcbe8487	-0.023256553
39	0x3dbae89b	0.09126397
40	0x3db2ccb2	0.08730449
41	0x3cbe9296	0.023263257
42	0xbc574bad	-0.013140601
43	0xbcac1f05	-0.021010885
44	0xbd29bb52	-0.04143841
45	0xbd414153	-0.04718144
46	0x3c43506f	0.011921032
47	0xbd17b57d	-0.037038315
48	0x3ce7a657	0.02827756
49	0x3dbf5008	0.093414366
50	0x3d04fe31	0.03246898
51	0x3a748739	0.0009328011
52	0xbd1e37e5	-0.038627524
53	0x3d0e5dab	0.034757297
54	0x3a6f98cd	0.00091398956
55	0xba95fd14	-0.0011443221
56	0xbd1e3880	-0.0386281
57	0xbc1a47eb	-0.009416561
58	0x3db19af1	0.08672131
59	0x3cf2cc49	0.029638426
60	0x3d1dd809	0.038536105
61	0xbcddbad2	-0.027066622
62	0x3ba45beb	0.0050158403
63	0xbd4e345f	-0.050342914
64	0xbd4f5dda	-0.050626613
65	0x3bb5e639	0.0055511263
66	0x3d6d17d9	0.05788407
67	0x3d46cf97	0.048537817
68	0x39216ebc	0.00015395408
69	0x3bc5337a	0.0060180994
70	0x3b97e4ce	0.00463543
71	0xbcd86eb9	-0.026419984
72	0xbccf3b7f	-0.025296925
73	0x3d46012c	0.04834096
74	0x3c7f6ea5	0.015590345
75	0xbbf0c8db	-0.0073481626
76	0x3dbcfe9f	0.092282526
77	0x3cf40a3b	0.029790035
78	0xbd3f160c	-0.046651885
79	0x3d0d79d0	0.034539998
80	0xbd65daff	-0.056117054
81	0x3d4fa7e8	0.050697237
82	0x3d2691ec	0.040666506
83	0x3cef7632	0.029231165
84	0x3d2cdeaa	0.042204536
85	0x3d254202	0.040346153
86	0x3b790c51	0.0038001726
87	0x3d0c0017	0.034179773
88	0xbd6d1a4a	-0.0578864
89	0x3d0e63d5	0.034763176
90	0xbd3d7325	-0.04625239
91	0xba27b9e2	-0.0006398243
92	0x3d2b9d26	0.041897915
93	0x3d844aa6	0.064595506
94	0x3d617307	0.05504134
95	0x3d1de96b	0.038552683
96	0x3aa093a7	0.0012251035
97	0x3d22697f	0.03965139
98	0xbc5f77a6	-0.013639366
99	0xbc9af798	-0.01891689
100	0xbcb0d609	-0.021586435
101	0xbd229c37	-0.03969976
102	0x3dec7bfb	0.11547085
103	0x3dd9738f	0.10617744
104	0x3d157cbf	0.03649592
105	0xbc8081b0	-0.01568684
106	0x3cfed075	0.03110526
107	0x3c5e7424	0.013577495
108	0xbcb2c26f	-0.021821229
109	0xbca073bf	-0.019586442
110	0xb9c14b55	-0.00036867955
111	0x3d147b95	0.03625067
112	0x3dc9014b	0.098147
113	0x3d7ca749	0.061682973
114	0xbcfae911	-0.030628713
115	0xbd5e47b8	-0.054267615
116	0xbc847d5d	-0.01617306
117	0xbd6d41c3	-0.057924043
118	0xbd300d25	-0.042981286
119	0xbb0add71	-0.0021189118
120	0xbd4ba334	-0.04971619
121	0xbcaa039a	-0.02075367
122	0x3aec6376	0.0018035013
123	0x3cb3dc06	0.021955501
124	0x3d05df62	0.032683738
125	0xbbc6004d	-0.0060425163
126	0xbc30c0b5	-0.010788132
127	0x3d559d1d	0.052151788
128	0xbd41ee7e	-0.047346584
129	0xbc693b85	-0.014235382
130	0x3d809ae8	0.06279546
131	0x3b590a04	0.0033117542
132	0xbc88d21b	-0.016701749
133	0x3d69cc82	0.0570798
134	0xbcfdd305	-0.030984411
135	0x3d486513	0.048924517
136	0x3a035fe2	0.0005011541
137	0xbcff89a1	-0.031193556
138	0x3d90d78a	0.07072361
139	0x3bc5dcc8	0.006038282
140	0x3c8dfbfc	0.01733207
141	0x3d6fe7f0	0.058570802
142	0xbc9962e1	-0.018723907
143	0x3c99f109	0.018791692
144	0x3d181288	0.037127048
145	0xbb2a1bff	-0.0025956628
146	0x3bc9d03a	0.0061588557
147	0x3d563dfa	0.0523052
148	0x3d4674c6	0.048451208
149	0x3c8849bb	0.01663672
150	0x3d209217	0.039201822
151	0xbd3d7964	-0.046258345
152	0xbd36ac5a	-0.04459796
153	0xbce1b917	-0.027554078
154	0x3cf7cc68	0.030248836
155	0xbca0beb6	-0.019622188
156	0x3d676a37	0.05649778
157	0x3c52996e	0.012853963
158	0x3d40f06e	0.04710429
159	0xbc65875e	-0.014009325
160	0x3c7e0bad	0.015505713
161	0xbd2d44fe	-0.042302124
162	0xbbbe620b	-0.0058100275
163	0x3c896b50	0.016774803
164	0x3b3f4b63	0.002918922
165	0x3d91cafc	0.07118794
166	0x3d75f33d	0.060046423
167	0x3cf47d8f	0.029845027
168	0xbd28cbc6	-0.04120996
169	0x3d097ae3	0.03356446
170	0x3cc62d96	0.024191659
171	0xbb9e4145	-0.004829558
172	0x3cf36faa	0.029716332
173	0x3d323770	0.0435099
174	0x3d6770d4	0.056504086
175	0x3da92511	0.08259023
176	0x3d3f04dc	0.046635494
177	0xbccb2948	-0.024799958
178	0xbcbaf807	-0.022823347
179	0x3d10d567	0.035359766
180	0x3c1d3a9c	0.009596493
181	0x3d4c4432	0.049869724
182	0x3d53b610	0.0516873
183	0x3d5cf3c6	0.053943418
184	0x3ddf5f63	0.109068654
185	0x3bd1f897	0.006407808
186	0xbd3f9e35	-0.046781737
187	0x3ccfc2d9	0.025361465
188	0x3d6cbeb2	0.05779905
189	0x3d1861fc	0.03720282
190	0xbbb86c39	-0.0056281355
191	0x3c46c3ca	0.012131641
192	0x3c0e10ae	0.008670969
193	0x3ddc6ff4	0.10763541
194	0xbc02f622	-0.007993253
195	0x3d41d34c	0.04732065
196	0x3c4bef05	0.012447123
197	0x3cde7402	0.027154926
198	0xbd5fc930	-0.054635227
199	0x3d04701b	0.032333475
200	0xbae89136	-0.0017743472
201	0x390c48b2	0.00013378522
202	0x3c48be68	0.012252428
203	0x3c804d1e	0.015661772
204	0x3ca3bc7b	0.019987335
205	0x3d4511f6	0.048112832
206	0x3d54cad4	0.051951244
207	0xbd445b42	-0.047938593
208	0xbc067ea6	-0.008208906
209	0xbbcc0b46	-0.00622693
210	0xbd917a26	-0.07103376
211	0x3da03111	0.07821859
212	0xbd846a05	-0.06465534
213	0x3c1750aa	0.00923554
214	0xbd3215ff	-0.04347801
215	0x3cbbd295	0.022927562
216	0xbcd4b02a	-0.025962908
217	0xbcfb7ca1	-0.030699076
218	0x3bc75f16	0.006084333
219	0x3c715dcf	0.014731838
220	0x3d194a00	0.037424088
221	0x3ca3435e	0.019929584
222	0xbd0d4dc4	-0.03449799
223	0xbd0e2f0b	-0.034712832
224	0xbd19f9e3	-0.037591826
225	0x3b8d389a	0.004309726
226	0x3d03c424	0.032169476
227	0xbd0b00c8	-0.033936292
228	0xbc575f18	-0.013145231
229	0x3d80618f	0.06268608
230	0xbba2383b	-0.004950551
231	0x3d431880	0.047630787
232	0xbd3fe2cc	-0.04684715
233	0x3c4ea484	0.012612466
234	0x3c9f1541	0.019419314
235	0x3cd95df6	0.026534062
236	0x3d2889b4	0.04114695
237	0xbb9be613	-0.0047576516
238	0x3daa298a	0.08308704
239	0x3d2626cd	0.040564347
240	0xbd0386c6	-0.03211095
241	0xbc2084b0	-0.00979726
242	0xbad02cc1	-0.0015882478
243	0xbc9f7596	-0.019465249
244	0x3c8f9794	0.017528333
245	0x3cdfc52a	0.027315695
246	0x3d21fa8d	0.039545584
247	0x3db8a88a	0.09016521
248	0xbb9cdcbf	-0.004787057
249	0xba2e73ec	-0.0006654847
250	0xbc122a88	-0.008921273
251	0x3c22a072	0.009925948
252	0xbd042264	-0.03225936
253	0x3cac60b1	0.0210422
254	0xbd3caad9	-0.04606137
255	0x3d8fc627	0.070202164

encoder.4.bias f4 [64]
0	0x3db0a7ba	0.08625741
1	0x3dc2cfd5	0.09512297
2	0x3d388490	0.045048296
3	0x3db9b2f0	0.09067333
4	0x3de5fbde	0.112296805
5	0xbb0149cb	-0.0019727822
6	0x3c50135c	0.012699928
7	0xbd041233	-0.03224392
8	0x3c812804	0.015766151
9	0x3d482f6a	0.048873343
10	0x3d99c8a6	0.07508974
11	0xbc81395f	-0.015774427
12	0x3c42b47b	0.01188385
13	0xbc256b27	-0.010096348
14	0x3d8bbddb	0.068233214
15	0x3ddb771d	0.107160784
16	0x3d9ecf33	0.07754364
17	0xbe07dc14	-0.13267547
18	0xbd6fbcb0	-0.058529556
19	0x3db203ce	0.08692132
20	0xbc9d9a29	-0.019238548
21	0x3de1d03c	0.11026046
22	0x3d8ccd87	0.06875139
23	0x3d99b36d	0.07504926
24	0xbd1e9d94	-0.038724497
25	0x3db943bb	0.09046122
26	0x3ded516f	0.11587798
27	0xbe4fc079	-0.20288266
28	0x3d36120e	0.044450812
29	0x3db93115	0.09042565
30	0xb9bcd766	-0.0003601864
31	0x3df22a4a	0.11824472
32	0x3d70cfc1	0.05879188
33	0xbc060849	-0.008180686
34	0xbd26f4be	-0.040760748
35	0x3d6b00c6	0.057373784
36	0x3e13b789	0.14425482
37	0x3d379f06	0.04482939
38	0x3da52cac	0.08065161
39	0x3d338e2a	0.04383675
40	0xbc9137f2	-0.017726872
41	0xbb6f0c41	-0.003647581
42	0x3db9eff0	0.090789676
43	0xbcef61be	-0.029221412
44	0x3dbcf5f5	0.092266
45	0x39a3bfcc	0.00031232683
46	0x3d697a71	0.057001535
47	0x3db6bcb2	0.089227095
48	0xbd0909a6	-0.033456467
49	0x3c8e3471	0.01735899
50	0x3cbc9555	0.023020426
51	0x3d027804	0.031852737
52	0xbdf54c6f	-0.11977469
53	0x3dcd384d	0.10020504
54	0x3da86cee	0.08223902
55	0xbcc70ed0	-0.024299055
56	0x3da8fc09	0.08251197
57	0x3d8f198a	0.06987293
58	0xbcfcaad3	-0.030843174
59	0x3dea26e4	0.11433199
60	0x3da93480	0.08261967
61	0x3dc3aa1b	0.095539294
62	0x3d857e4f	0.06518232
63	0x3deac672	0.11463632

decoder.0.weight f4 [64, 32, 3, 3]
0	0xbca69737	-0.020335777
1	0x3d1ae8d3	0.037819695
2	0x3d1d93bc	0.03847097
3	0x3c5b844d	0.013398242
4	0x3dd671bc	0.10470912
5	0x3d3f0834	0.046638682
6	0xbd1b9cbd	-0.037991274
7	0x3d404968	0.046945006
8	0xbce0ce18	-0.027442023
9	0xbc372d59	-0.011180245
10	0x3d006534	0.031346515
11	0xbc6f8fd8	-0.014621697
12	0x3d1f49a5	0.038888592
13	0x3da9e90a	0.08296402
14	0x3dd0e1e2	0.10199334
15	0xbd1f4a1b	-0.03888903
16	0x3c7126aa	0.014718691
17	0x3cd0c002	0.025482181
18	0xbd2c912b	-0.04213063
19	0x3cbcb0b4	0.023033477
20	0x3b5cb7d8	0.0033678915
21	0x3cd907d8	0.026492998
22	0x3debfbe2	0.11522652
23	0x3c562ed7	0.013072691
24	0xbd5b8d79	-0.053601716
25	0xbc9a4087	-0.018829597
26	0xbd229f4a	-0.03970269
27	0xbd4f43aa	-0.05060164
28	0xbc7251be	-0.014789997
29	0x3d5e4d40	0.05427289
30	0x3dd4c6b2	0.103894606
31	0x3db9a381	0.09064389
32	0xbc873e3f	-0.016509173
33	0xbca54726	-0.020175528
34	0xbd17522b	-0.036943596
35	0xbc548b8b	-0.012972723
36	0x3c38f2cf	0.011288359
37	0xbcd40cf9	-0.025885092
38	0x3a82b8c5	0.0009973279
39	0x3d40d607	0.047079112
40	0x3dfc7f34	0.123289496
41	0xbbe03d0b	-0.0068432144
42	0x3d46e7cc	0.048560902
43	0xbd5098af	-0.05092686
44	0xbcbbdb8a	-0.022931833
45	0x3c836a85	0.016042003
46	0xbb05c96d	-0.0020414249
47	0x3ba9b0d0	0.0051785484
48	0xbc46ae50	-0.01212652
49	0x3d300fe0	0.04298389
50	0x3bdb7666	0.006697464
51	0x3cabcdfc	0.020972244
52	0xbb2dfe30	-0.0026549213
53	0x3addb3ed	0.0016914584
54	0x3d2ebd70	0.04266113
55	0xbcbd68c9	-0.023121255
56	0x3c29db53	0.010367232
57	0xbb09d0a9	-0.0021028912
58	0xbda9b52c	-0.08286509
59	0x3cf3227c	0.02967953
60	0xbd142165	-0.03616466
61	0xbd3b82ff	-0.045779224
62	0xbcb6afd6	-0.022300642
63	0xbc1a1c86	-0.009406215
64	0x3d486d7d	0.04893254
65	0x3b8ee8a5	0.0043612295
66	0xbca12e62	-0.019675437
67	0xbcbf72e5	-0.023370216
68	0xbd277d29	-0.040890846
69	0xbd0debd9	-0.03464875
70	0x3d092e88	0.03349164
71	0xbc96e770	-0.018420905
72	0x3d2caf5c	0.042159423
73	0x3d2260d2	0.039643116
74	0x3d373e77	0.044737305
75	0x3d52a043	0.05142237
76	0xbbd9f24c	-0.0066511985
77	0x3d1c6b2a	0.038188137
78	0xbd4ee750	-0.050513566
79	0x3d5974fc	0.05309008
80	0xbccb3db3	-0.024809694
81	0x3bd49f14	0.00648869
82	0xbd427114	-0.04747112
83	0xbd03e843	-0.032203924
84	0xbd0695a6	-0.03285756
85	0xbcfa5e4c	-0.030562542
86	0xbcb6dbc9	-0.022321599
87	0x3bc8cb6c	0.0061277654
88	0x3d63bd36	0.055600367
89	0x3c1e87ce	0.009675933
90	0xbc8bf75f	-0.01708573
91	0xbcb56416	-0.022142451
92	0x3cc7f92d	0.024410808
93	0x3ab61b83	0.0013893697
94	0x3d9c3564	0.07627371
95	0xbd860231	-0.06543387
96	0x3d32f807	0.04369357
97	0x3d04bf29	0.032408867
98	0xbc6c9b36	-0.014441302
99	0x3cc756a9	0.024333315
100	0xbd261b39	-0.040553305
101	0x3cf197ef	0.029491393
102	0xbbf0e511	-0.0073515256
103	0xba5ba03d	-0.00083780644
104	0x3d5d752b	0.05406682
105	0x3be137d6	0.0068731112
106	0x3ce81da9	0.028334456
107	0x3d5e7c2f	0.05431765
108	0xbcdc1e14	-0.026869811
109	0x3c1854f8	0.009297602
110	0x3c94eb62	0.018178646
111	0x3c5455f0	0.012959942
112	0xbc947b8c	-0.018125318
113	0x3d88d901	0.06682015
114	0x3c7d07a3	0.015443715
115	0xbc3e5e73	-0.011619198
116	0x3d58dd24	0.05294527
117	0x3d365797	0.044517126
118	0xbd4716df	-0.048605796
119	0xbd2b8ea9	-0.0418841
120	0x3dc5705f	0.09640574
121	0x3d1b05ae	0.037847213
122	0x3daee68d	0.08540068
123	0xbc86f38f	-0.01647356
124	0xbd67715e	-0.0565046
125	0x3d338af5	0.04383369
126	0xbd27e3f0	-0.040988863
127	0xbcc0a814	-0.023517646
128	0x3d4b8682	0.049688824
129	0x3da59c0c	0.08086404
130	0x3d96f7f2	0.073715106
131	0x3d04ce1a	0.032423116
132	0xbd4f7502	-0.050648697
133	0x3d06345a	0.03276477
134	0xbc5dfad0	-0.013548568
135	0x3d08f1a6	0.03343358
136	0x3d540bc7	0.051769044
137	0x3d42a28a	0.04751829
138	0xbd046bf1	-0.032329503
139	0x3d87e2a5	0.06635026
140	0xbcb273e5	-0.021783778
141	0x3ca0184b	0.019542834
142	0xbd64bd7b	-0.055844765
143	0x3d613eca	0.05499152
144	0xbc8232a1	-0.015893282
145	0x3d6bf745	0.05760886
146	0x3c7afe5a	0.015319431
147	0xbcad3762	-0.021144573
148	0x3c1c718b	0.009548555
149	0xbce2667f	-0.027636765
150	0x3d5aa167	0.05337658
151	0x3d6272e0	0.055285335
152	0x3d6945bd	0.056951273
153	0xbd3300a7	-0.043701794
154	0x3d0478a1	0.032341603
155	0xbd4d0075	-0.050049264
156	0x3cab5c0f	0.02091792
157	0x3dc89150	0.09793341
158	0xbd54bff4	-0.051940873
159	0x3d3b1381	0.045672897
160	0xbc64742f	-0.013943716
161	0x3d35e7b8	0.044410437
162	0xbd43c625	-0.047796387
163	0xbd052372	-0.032504506
164	0x3cc917a4	0.024547406
165	0x3d0a95e8	0.033834368
166	0x3d3e4063	0.046448123
167	0x3d642513	0.05569942
168	0xbd497990	-0.049188197
169	0x3cfe3a7a	0.031033743
170	0xbccf183b	-0.025280109
171	0x3d3f54b6	0.046711646
172	0xbcdac948	-0.026707307
173	0xbd3fc367	-0.04681721
174	0x3db768cd	0.08955536
175	0x3dad541d	0.08463309
176	0x3cb4cbb5	0.022069791
177	0xbd5bb368	-0.053637892
178	0xbd04e67f	-0.03244638
179	0x3d1ab211	0.037767474
180	0xbd2246f0	-0.039618433
181	0x3d6c96c6	0.057760976
182	0x3d3a9a93	0.04555757
183	0x3d96f532	0.07370986
184	0x3dcd798a	0.10032947
185	0x3ccafc18	0.02477841
186	0xbd2d2aef	-0.042277273
187	0x3c7e4f3c	0.015521821
188	0x3b883ffd	0.0041580186
189	0x3b1ff4ac	0.002440731
190	0xbc18f89b	-0.009336616
191	0x3d236715	0.03989323
192	0x3c92d29b	0.01792269
193	0x3d376550	0.044774354
194	0x3dc42c53	0.09578767
195	0xbc49b9b8	-0.012312345
196	0x3d6ee944	0.05832793
197	0x3b6662b7	0.0035154053
198	0x3d12f547	0.035878446
199	0xbcd58e7e	-0.026068922
200	0x3ce25358	0.027627632
201	0x3c8f85b6	0.017519813
202	0x3da3b4f2	0.07993497
203	0xbbbd1227	-0.005769986
204	0x3d344dab	0.044019382
205	0xbc4b578d	-0.01241101
206	0x3d00f6a2	0.031485207
207	0xbd53e644	-0.05173327
208	0x3c830843	0.01599515
209	0xbcc81b0b	-0.024426958
210	0x3c25d83b	0.010122354
211	0x3d81903d	0.063263394
212	0xba73b5bb	-0.00092967943
213	0xbc949dc7	-0.01814164
214	0x3d501556	0.050801598
215	0x3ca47a4b	0.020077845
216	0x3d46969f	0.048483487
217	0xbc0c1079	-0.008548849
218	0xbd0bf600	-0.03417015
219	0x3d919264	0.07108
220	0x3d9755d1	0.07389415
221	0x3ce3a028	0.02778633
222	0x3d1f98a1	0.038963918
223	0xbd0cda1d	-0.034387697
224	0x3d099317	0.03358754
225	0x3cbb5282	0.022866491
226	0x3d3928ab	0.0452048
227	0xbd28599f	-0.041101094
228	0x3d2d4fa6	0.042312287
229	0x3c23a00d	0.00998689
230	0x3c382803	0.011240008
231	0xbbb0f38f	-0.005400128
232	0xbc08cf53	-0.008350211
233	0x3d522a33	0.051309776
234	0xbd14bb36	-0.03631135
235	0x3bd7dda2	0.0065877
236	0x3d16836a	0.03674642
237	0x3d069c6e	0.032864027
238	0x3dd64342	0.10462047
239	0x3c67ee56	0.014155945
240	0xbbceda94	-0.0063126776
241	0x3d452ae5	0.04813661
242	0xbd0352ce	-0.03206139
243	0x3d43f7aa	0.047843613
244	0xbd14ae34	-0.036298946
245	0x3d184be5	0.037181754
246	0x3dd089f0	0.101825595
247	0xbb0180a8	-0.0019760523
248	0x3db4a1f5	0.08819953
249	0xbbfbffb5	-0.0076903948
250	0xbd394f3e	-0.045241587
251	0xbcdc9933	-0.02692852
252	0xbd35a9c8	-0.04435137
253	0x3d6da76e	0.058021
254	0x3c036fc4	0.0080222525
255	0xbc890512	-0.01672605

decoder.0.bias f4 [32]
0	0x3d1b4b5f	0.037913676
1	0x3e291208	0.16510785
2	0x3d6bc5c1	0.05756164
3	0x3d964dae	0.07339035
4	0x3d282d4d	0.041058827
5	0x3d407072	0.046982236
6	0xbd4654fc	-0.04842089
7	0x3b5de5ec	0.0033858968
8	0xba0df6cf	-0.00054155005
9	0x3c975786	0.018474352
10	0x3d01bc5d	0.031673778
11	0xbc5d6ee9	-0.013515213
12	0x3d821de7	0.0635336
13	0x3db3a662	0.087719694
14	0x3e03ff5f	0.12890385
15	0x3d2fb4e6	0.042897128
16	0xbd10155b	-0.035176616
17	0x3c58afd4	0.013225514
18	0x3d3ebe9b	0.046568494
19	0x3d963d43	0.073359035
20	0x3dae68e8	0.08516103
21	0x3caec560	0.02133435
22	0x3d88f407	0.066871695
23	0x3d853840	0.065048695
24	0x3dc008da	0.09376688
25	0x3ccaf4d5	0.024774948
26	0x3dac5100	0.08413887
27	0x3cff745f	0.03118342
28	0x3d8053b0	0.06265962
29	0x3db5566f	0.088543765
30	0x3c7c1e9e	0.015388159
31	0x3d77512c	0.060380146

decoder.2.weight f4 [32, 16, 3, 3]
0	0xbd934b8f	-0.07192146
1	0xbd85352c	-0.06504282
2	0xbd147706	-0.036246322
3	0x3d8d552d	0.069010116
4	0xbd4f102e	-0.05055254
5	0x3cda161f	0.026621876
6	0x3da6ef14	0.08151069
7	0xbd6aec48	-0.05735424
8	0xb9e58156	-0.00043774646
9	0x3cd117e0	0.02552408
10	0x3da4b7ba	0.080428556
11	0xbcfe7160	-0.03105992
12	0x3d628875	0.055305917
13	0xbcb0138e	-0.0214937
14	0x3c7bae63	0.015361401
15	0x3d378878	0.04480788
16	0x3b24f6ab	0.002517144
17	0x3d70bd96	0.058774553
18	0xbd3e9466	-0.046528243
19	0xbd196798	-0.03745231
20	0x3d922ade	0.071370825
21	0xbb706920	-0.0036683753
22	0x3e0338f4	0.12814695
23	0xbcc971fc	-0.024590485
24	0xbd2add76	-0.041715108
25	0xbd46fb26	-0.048579358
26	0xbd84dd4f	-0.06487524
27	0xbd42cdd6	-0.04755958
28	0xbd8f0bb3	-0.06984653
29	0x3d75902e	0.059951954
30	0xbc41870d	-0.011811984
31	0x3db8a5d0	0.09016001
32	0x3dc67e15	0.09692017
33	0xbd4c737e	-0.04991483
34	0x3d2d4b03	0.042307865
35	0x3d449b5e	0.047999732
36	0x3cb20a70	0.021733493
37	0x3d08ed36	0.033429347
38	0xbd8f98b4	-0.07011548
39	0x3e23f4e6	0.1601139
40	0xbb74d672	-0.0037359265
41	0xb92143b3	-0.00015379376
42	0xbd486093	-0.048920225
43	0xbcb68e0b	-0.022284528
44	0xb917a556	-0.00014462075
45	0x3d51fb40	0.051265
46	0xbd895636	-0.067058966
47	0x3ca64a00	0.020298958
48	0x3d4fb84b	0.050712865
49	0x3df41355	0.1191775
50	0xbb0f5619	-0.0021871387
51	0xbd1875a8	-0.03722158
52	0xbd478816	-0.048713766
53	0xbd9c341f	-0.07627129
54	0xbb0698ab	-0.0020537775
55	0xbc150176	-0.009094587
56	0x3c2270f6	0.009914627
57	0x3c8c5216	0.017128985
58	0x3d939497	0.07206076
59	0x3cb8f702	0.02257872
60	0xbd47c20e	-0.04876905
61	0x3d48b6de	0.04900252
62	0xbc82d906	-0.015972625
63	0x3d9452b0	0.07242334
64	0xbda70e60	-0.08157039
65	0x3d225918	0.039635748
66	0xbd30d2b3	-0.04316969
67	0x3cb4fae2	0.022092286
68	0x3d31dec0	0.04342532
69	0x3d5f4430	0.054508388
70	0xbd972b43	-0.073812984
71	0x3d2a54de	0.041584842
72	0xbd795f3b	-0.060881834
73	0x3ac1b456	0.0014778476
74	0xbd13bdce	-0.036069684
75	0xbd237ee0	-0.03991592
76	0x3d87af3e	0.06625222
77	0x3c9c1e48	0.019057408
78	0x3d9c05e2	0.076183096
79	0xbd23d093	-0.039993834
80	0xbd28fd58	-0.041257232
81	0x3ccef720	0.025264323
82	0x3cb60edb	0.02222388
83	0x3d234ef0	0.039870203
84	0x3e12eb3a	0.14347544
85	0x3df4326f	0.11923682
86	0xbd350862	-0.044197448
87	0xbd22ebd3	-0.03977568
88	0xbd4b1a20	-0.04958546
89	0xbd8cc718	-0.068739116
90	0xbd84602b	-0.06463655
91	0xbb26c22b	-0.0025445323
92	0x3d9c080e	0.07618724
93	0xbd630071	-0.055420343
94	0x3e0d0eab	0.13775127
95	0x3d9c168e	0.076214895
96	0xbca08866	-0.01959629
97	0x3d74bdde	0.059751384
98	0xbb2e7100	-0.0026617646
99	0xbda8f6ba	-0.08250184
100	0x3d98425b	0.07434531
101	0xbd530626	-0.051519535
102	0x3e539958	0.20663965
103	0x3b94c88e	0.0045405095
104	0x3d2ace42	0.04170061
105	0xbd4c3313	-0.049853396
106	0x3da62f32	0.081144705
107	0x3d037398	0.03209266
108	0xbd6da74b	-0.05802087
109	0x3d82daf3	0.063894175
110	0x3c6c5bab	0.014426152
111	0xbbc67010	-0.0060558394
112	0x3dea7695	0.11448399
113	0x3d9f2375	0.07770435
114	0xbd8e9cb6	-0.06963484
115	0xbdaa3984	-0.083117515
116	0xbda84338	-0.08215946
117	0xbd96ace7	-0.07357197
118	0x3cc02e20	0.023459494
119	0xbcd28f9b	-0.025703242
120	0xbd9147ae	-0.0709375
121	0x3d236382	0.03988982
122	0xbc6de995	-0.014521022
123	0x3cbf67db	0.023364952
124	0xbd955583	-0.07291701
125	0x3cfc67eb	0.03081127
126	0x3cb025a6	0.021502327
127	0xbc77d2ab	-0.015125911
128	0x3d2f8513	0.04285152
129	0xbdb433b4	-0.08798924
130	0x3a328fd8	0.00068115955
131	0xbcd78320	-0.026307642
132	0xbcbf0030	-0.02331552
133	0x3d40dfd0	0.047088444
134	0xbda7dbca	-0.08196218
135	0x3c71ec16	0.01476576
136	0xbc6fd576	-0.014638295
137	0x3c772ce0	0.015086383
138	0x3d9a77d1	0.075423844
139	0x3ce441dd	0.027863437
140	0x3d37e50f	0.04489618
141	0x3cf14db6	0.029456
142	0x3cad3426	0.02114303
143	0x3d3682fe	0.044558518
144	0xbbc839d6	-0.00611041
145	0x3d9a6d52	0.075403824
146	0x3d8bb094	0.06820789
147	0x3d968a7b	0.07350632
148	0xbd5e98fb	-0.054345112
149	0x3db09efe	0.08624075
150	0x3da60c6b	0.08107837
151	0x3bdeb96b	0.006797006
152	0x3d738856	0.059456192
153	0x3c1f43c0	0.009720743
154	0xbd95b8a4	-0.07310608
155	0x3c30d46b	0.010792832
156	0xbe0a7ccb	-0.13524167
157	0xbcde51e9	-0.027138667
158	0xbe1b2b44	-0.15153223
159	0xbd4d9fb8	-0.050201148
160	0x3da92386	0.08258729
161	0x3d4ca3fe	0.049961083
162	0x3d489020	0.048965573
163	0x3c7096f6	0.014684429
164	0x3c92d33b	0.017922988
165	0xbdf866a9	-0.12128956
166	0xbdca0786	-0.09864716
167	0xbe66cb95	-0.22538598
168	0x3b2d65d6	0.0026458404
169	0x3da21fd4	0.07916227
170	0xbd859f92	-0.06524576
171	0xbc8eafa0	-0.017417729
172	0x3daa5322	0.083166376
173	0xbc9033b0	-0.017602772
174	0xbe661df4	-0.22472364
175	0xbd488229	-0.048952255
176	0xbe15f478	-0.14644039
177	0x3d8b2d37	0.067957334
178	0xbd2a53be	-0.04158377
179	0xbd90a996	-0.07063596
180	0xbd78337e	-0.06059598
181	0xbd8e5d6a	-0.06951411
182	0x3d9b56df	0.07584929
183	0x3e30b7b2	0.17257574
184	0x3e241575	0.1602381
185	0x3e1b78c7	0.15182792
186	0x3be14e2b	0.0068757734
187	0xbd2f8768	-0.042853743
188	0xbcd798b0	-0.026317924
189	0x3d9f1a68	0.077687085
190	0x3c9d19c6	0.019177329
191	0xbd80484f	-0.06263792
192	0xbe52fbd0	-0.20603871
193	0xbe0b13b9	-0.13581742
194	0xbd90b6a7	-0.07066088
195	0xbc9e3846	-0.019313943
196	0xbd7481f6	-0.059694253
197	0x3d8f528a	0.06998165
198	0xbd5478de	-0.05187308
199	0x3d95bca3	0.0731137
200	0xbd129498	-0.03578624
201	0x3e0a6f5d	0.13519044
202	0x3e5405d4	0.20705348
203	0x3d519467	0.051166918
204	0x3d99d6ae	0.0751165
205	0x3d0f7360	0.03502214
206	0x3d8d11af	0.068881385
207	0x3da789e4	0.081805974
208	0x3da87c2f	0.08226811
209	0xbc65aa0b	-0.014017592
210	0xbddb0a78	-0.10695356
211	0xbc79d944	-0.015249554
212	0xbe39ba1f	-0.18137406
213	0x3d5805d0	0.05273992
214	0x3d2b7250	0.041857064
215	0xbc42be6b	-0.0118862195
216	0x3c59868b	0.013276706
217	0xbd1d117e	-0.03834676
218	0xbd6db6d8	-0.0580357
219	0xbe14751c	-0.14497799
220	0xbdd262ed	-0.10272775
221	0xbe30124e	-0.17194483
222	0xbd88f5ef	-0.06687533
223	0xbd38dccb	-0.04513244
224	0x3c1ce5c0	0.009576261
225	0xbd3e1b70	-0.046412885
226	0xbda374e3	-0.07981279
227	0x3c1d3aeb	0.009596567
228	0x3db00ab4	0.085957915
229	0x3e209e22	0.15685323
230	0x3dd4f9df	0.10399222
231	0xbd8d8a03	-0.06911089
232	0xbaaeb600	-0.0013329387
233	0x3cacf660	0.021113575
234	0xbd87c052	-0.06628479
235	0xbc903aeb	-0.01760622
236	0xbd28a3fe	-0.04117202
237	0xbe132ada	-0.14371815
238	0xbd07b191	-0.033128325
239	0xbe20c1f7	-0.15698992
240	0xbc877230	-0.016533941
241	0xbbf457d6	-0.00745676
242	0x3cd966b0	0.026538223
243	0xbd123fd3	-0.0357054
244	0xbd9488b2	-0.07252635
245	0x3c83d14b	0.01609101
246	0x3e114fc4	0.14190584
247	0x3e404291	0.18775393
248	0x3c828383	0.01593185
249	0xbd7b6fee	-0.06138604
250	0xbc8a7b7b	-0.016904583
251	0x3d9e3282	0.07724477
252	0x3d849698	0.06474036
253	0xbca48590	-0.020083219
254	0xbd931277	-0.07181256
255	0x3e1126c9	0.14174952

decoder.2.bias f4 [16]
0	0x3d832034	0.06402627
1	0x3df275a5	0.11838845
2	0x3dcb6025	0.099304475
3	0x3d933244	0.07187322
4	0x3e6ae2cb	0.22938077
5	0x3d9fcdc4	0.078029186
6	0x3daf301b	0.08554097
7	0x3d8417be	0.06449841
8	0x3da4bceb	0.08043846
9	0x3e14b453	0.14521913
10	0x3dfd51bd	0.12369106
11	0x3dec8d29	0.11550362
12	0x3d5ebcbc	0.05437921
13	0x3dcf4272	0.10120095
14	0x3d9a027f	0.07520007
15	0x3d8465b2	0.06464709

decoder.4.weight f4 [16, 1, 129, 7]
0	0xbce5d909	-0.028057592
1	0xbd6c1c76	-0.05764433
2	0xbca9fd14	-0.02075056
3	0xbd6efd8b	-0.058347266
4	0xbd347718	-0.04405889
5	0xbd98cf0f	-0.07461368
6	0xbc5a309f	-0.013317256
7	0xbc85ba57	-0.016324205
8	0xbd0a4675	-0.0337586
9	0xbd28ceb5	-0.041212756
10	0xbd00ac61	-0.031414393
11	0xbd607757	-0.05480131
12	0xbda2517b	-0.079256974
13	0xbd45ac10	-0.048259795
14	0xbd082fe3	-0.033248793
15	0xbd634d03	-0.055493366
16	0xbd7b51dc	-0.061357364
17	0xbd74e158	-0.059785217
18	0xbd813a1b	-0.06309911
19	0xbcd50bc1	-0.026006581
20	0xbd9be640	-0.07612276
21	0xbd8fba2f	-0.070179336
22	0xbd5a658d	-0.053319503
23	0xbd4b78a8	-0.049675614
24	0xbd2a1731	-0.041526023
25	0xbd3abc7c	-0.04558991
26	0xbcfaa770	-0.030597419
27	0xbcbdcae8	-0.023168042
28	0xbc92e1d2	-0.017929945
29	0xbd3c676b	-0.045997065
30	0xbca8f6c3	-0.020625478
31	0xbca9a959	-0.020710634
32	0xbd9eb37e	-0.07749079
33	0xbd5fbd8b	-0.05462412
34	0xbd840faf	-0.06448304
35	0xbd5f38a5	-0.05449738
36	0xbd908a84	-0.0705767
37	0xbd64b51f	-0.055836793
38	0xbd9117f8	-0.0708465
39	0xbd068f44	-0.032851472
40	0xbd7a4181	-0.061097626
41	0xbd975d08	-0.07390791
42	0xbd8685ba	-0.06568475
43	0xbd8fcb73	-0.07021227
44	0xbcb9c38d	-0.022676254
45	0xbd37b73c	-0.04485248
46	0xbd455dd0	-0.04818517
47	0xbd2f4f6e	-0.04280036
48	0xbd110a7c	-0.03541039
49	0xbd6dbc25	-0.058040757
50	0xbda501b2	-0.08056964
51	0xbd9a4510	-0.07532704
52	0xbd47e51b	-0.048802476
53	0xbd916577	-0.07099431
54	0xbcb4352a	-0.021998007
55	0xbd286983	-0.04111625
56	0xbd2281a2	-0.03967441
57	0xbd018a92	-0.03162629
58	0xbd686d18	-0.056744665
59	0xbc7d4b39	-0.015459829
60	0xbc65a6cb	-0.014016817
61	0xbd3d4e9a	-0.04621754
62	0xbc904ec6	-0.017615687
63	0xbd888aaa	-0.06667073
64	0xbd85a428	-0.06525451
65	0xbd6023b2	-0.05472154
66	0xbcc590b5	-0.024116853
67	0xbd2d2d8e	-0.042279772
68	0xbd5081c6	-0.05090501
69	0xbd6c3837	-0.0576708
70	0xbcc91145	-0.024544368
71	0xbd81b3f7	-0.06333154
72	0xbd071e86	-0.032988094
73	0xbd55f92d	-0.052239586
74	0xbd7b5f29	-0.06137005
75	0xbd56d3eb	-0.052448194
76	0xbd91a329	-0.071111985
77	0xbd5b5d92	-0.053556032
78	0xbd4abd70	-0.049497068
79	0xbcc8237c	-0.024430983
80	0xbcc76c6c	-0.024343692
81	0xbd9dc227	-0.07703047
82	0xbd1a3404	-0.037647262
83	0xbd6b40f0	-0.057434976
84	0xbc7db004	-0.01548386
85	0xbd3ebbd8	-0.04656586
86	0xbd5cd32f	-0.053912338
87	0xbd05982d	-0.03261583
88	0xbda36bda	-0.079795554
89	0xbd27c7f5	-0.04096218
90	0xbd76f7c1	-0.06029487
91	0xbd7eb39c	-0.062183008
92	0xbd5e7e5d	-0.05431973
93	0xbc93f91b	-0.018063119
94	0xbd891d0d	-0.06694994
95	0xbd3f918f	-0.046769675
96	0xbd67decb	-0.056608956
97	0xbc6b0f7f	-0.014346956
98	0xbd303dd0	-0.0430277
99	0xbcb728a3	-0.022358244
100	0xbd5bbaf8	-0.053645104
101	0xbd868972	-0.06569184
102	0xbd21c5ff	-0.039495464
103	0xbcd18b60	-0.025579154
104	0xbcbfb708	-0.023402706
105	0x3cb198bf	0.02167928
106	0x3b55d08a	0.003262552
107	0x3cc57870	0.02410528
108	0x3b874dac	0.0041291323
109	0xb673fba0	-3.6356287e-06
110	0x3c1d64ad	0.0096065225
111	0x3d0cf6c4	0.03441502
112	0x3ca5618d	0.020188117
113	0x3d0a504c	0.033767983
114	0xbaad772c	-0.0013234369
115	0x3d2995a9	0.041402493
116	0x3d2a86c9	0.041632447
117	0xbc13edbe	-0.00902885
118	0x3bf525a7	0.007481295
119	0x3a926554	0.0011169114
120	0x3cb7e57a	0.02244829
121	0x3c7d953d	0.015477476
122	0xbc87aef4	-0.016562916
123	0x3c2f6b81	0.010706783
124	0x3cda493e	0.026646253
125	0x3d464d02	0.048413284
126	0x3c815f07	0.015792383
127	0x3cd11c5b	0.025526216
128	0x3d2c6875	0.042091805
129	0x3cd8a2e4	0.02644486
130	0x3d12c886	0.035835765
131	0x3d103eac	0.03521602
132	0x3d42d94f	0.047570523
133	0xbcb8fcb7	-0.022581441
134	0x3b535572	0.0032246974
135	0x3d4ed017	0.05049142
136	0x3d17c8bf	0.03705668
137	0x3ca6570e	0.020305183
138	0x3d3b2a10	0.04569441
139	0x3d17a23e	0.03701996
140	0x3cd85f99	0.026412772
141	0x3c6a4cfe	0.014300583
142	0x3cc8b333	0.024499511
143	0x3d530250	0.051515877
144	0x3cd56dce	0.026053336
145	0x3d41afb9	0.047286723
146	0x3d16ff37	0.036864486
147	0x3ce9da31	0.028546425
148	0x3d2e09ba	0.042489745
149	0x3d800a06	0.06251912
150	0x3c8c7fca	0.017150778
151	0x3cb30259	0.021851705
152	0x3d8cc9a2	0.06874396
153	0x3d17cea9	0.03706232
154	0x3ca4627b	0.02006649
155	0x3d67e825	0.056617875
156	0x3d118fa1	0.035537366
157	0x3d39185e	0.045189254
158	0x3d5dca62	0.054148085
159	0x3d1fc9f5	0.03901096
160	0x3d3da82a	0.046302952
161	0x3c1619f8	0.009161465
162	0x3c80cb27	0.01572187
163	0x3d18ffb6	0.03735324
164	0x3d40c795	0.047065336
165	0x3ceffb25	0.02929456
166	0x3d1ca4d9	0.03824315
167	0x3d47e99e	0.04880678
168	0x3bb45422	0.0055031935
169	0x3c312f9f	0.010814576
170	0x3b81caa3	0.0039609238
171	0x3c93bd99	0.018034743
172	0x3cfe026f	0.03100702
173	0x3d4a91cb	0.049455445
174	0x3d1fe770	0.039039075
175	0xbbc9f082	-0.006162704
176	0x3b84ea5d	0.0040562586
177	0x3d183c9f	0.037167188
178	0x3c921fd4	0.017837442
179	0x3d23c503	0.039982807
180	0x3d302051	0.04299957
181	0x3c5a0e00	0.013309002
182	0x3c3d2739	0.011544996
183	0x3d29b5e4	0.04143323
184	0x3d67fd0b	0.056637805
185	0x3b22bcda	0.0024831803
186	0x3cac27ce	0.021015074
187	0x3d84cdaf	0.064845435
188	0x3d2dd2ac	0.04243724
189	0x3c008666	0.007844543
190	0x3c8e4ac3	0.017369634
191	0x3d1bfb3d	0.038081396
192	0x3d1f2e1f	0.038862344
193	0x3d3c1c48	0.04592541
194	0x3c9234a2	0.017847363
195	0x3d219bd7	0.03945526
196	0x3c90b5e9	0.017664867
197	0x3c650950	0.013979271
198	0x3d1f6c9a	0.03892193
199	0xbc4fa6c4	-0.012674037
200	0x3d005850	0.03133422
201	0x3cde9bfb	0.027173987
202	0x3c2d22ca	0.010567376
203	0x3cc7a7a2	0.024371926
204	0x3d04c0b1	0.032410327
205	0x3b995ac1	0.004680008
206	0x3cd7ace9	0.026327567
207	0x3c9a0591	0.018801482
208	0x3cec58d8	0.028850958
209	0x3c718a3d	0.014742431
210	0x3ba3208b	0.0049782447
211	0x3cb459ed	0.022015536
212	0x3cff1979	0.031140076
213	0x3cda1f04	0.026626118
214	0x3cfa9d0d	0.030592466
215	0x3d13eae2	0.036112674
216	0x3ccf4440	0.025301099
217	0x3c7d1b84	0.015448455
218	0x3cce347b	0.025171509
219	0x3cc104e5	0.023561904
220	0x3cd7877f	0.026309727
221	0x3cb8f9e3	0.022580093
222	0x3d095712	0.033530302
223	0x3d4587cd	0.048225213
224	0xbcac2fdf	-0.02101892
225	0x3c63936d	0.0138901295
226	0x3c939637	0.018015964
227	0x3cad7f87	0.021178974
228	0xbb92aef2	-0.0044764215
229	0x399f91bb	0.0003043542
230	0x3d016d72	0.031598516
231	0xba76e824	-0.0009418747
232	0xbcaa7e6b	-0.020812234
233	0x3cc622f0	0.024186581
234	0xbc10673b	-0.008813675
235	0xbac90d22	-0.0015338997
236	0x3cb82817	0.022480054
237	0x3a470985	0.0007592666
238	0xbc191b0b	-0.009344826
239	0x3b78639c	0.0037901169
240	0x3bba1f85	0.005680027
241	0x3ccc083d	0.024906272
242	0x3cf800b5	0.030273775
243	0x3c23f068	0.010006048
244	0x3c9b9899	0.018993663
245	0xbcf8f8f2	-0.030392144
246	0xbc9c0da7	-0.019049479
247	0x3d408699	0.047003362
248	0xbbb72ea4	-0.005590277
249	0x3bb45cf5	0.0055042454
250	0x3cbd3c99	0.023100184
251	0x3ccdd8b0	0.025127739
252	0x379e2408	1.8851846e-05
253	0x3bdd6f90	0.006757684
254	0x3cd76e1c	0.026297621
255	0x3c1a8352	0.009430723
