checkpoints/CNNAutoencoder/model_epoch_10.pth (torch, 305186 bytes, 11 tensors)

encoder.0.weight f4 [16, 1, 129, 7]
-0.08241236 -0.080201216 -0.06688087 -0.043103 -0.09667398 -0.03946688 -0.09028028 -0.09829475
-0.03245758 -0.061503053 -0.0868151 -0.054260015 -0.07217814 -0.09052653 -0.062409278 -0.034827292
-0.06033356 -0.0784391 -0.069271326 -0.03716855 -0.08619136 -0.08424354 -0.091679 -0.07730624
-0.06445889 -0.079797275 -0.06955266 -0.09064721 -0.08277993 -0.09863816 -0.04159194 -0.053380895
-0.034425713 -0.03815459 -0.066388085 -0.035202455 -0.08510363 -0.06875774 -0.048281994 -0.04285824
-0.08750146 -0.032447316 -0.052639157 -0.04788932 -0.0339362 -0.078731045 -0.039305232 -0.0775818
-0.038901865 -0.04041657 -0.09317208 -0.06923887 -0.06042473 -0.057212908 -0.07823371 -0.065565206
-0.09137242 -0.073078334 -0.07948576 -0.067152224 -0.04982088 -0.05256828 -0.07857483 -0.06690627
-0.085750245 -0.06938146 -0.08659736 -0.036349293 -0.042832013 -0.08145922 -0.08354694 -0.08554437
-0.047079295 -0.07503899 -0.08582421 -0.05685982 -0.057960924 -0.09054796 -0.08486782 -0.03249591
-0.083555095 -0.07216585 -0.03442704 -0.051875766 -0.08131549 -0.08333328 -0.04563781 -0.088807054
-0.08874476 -0.07556016 -0.097842485 -0.092740744 -0.053607967 -0.052482698 -0.067278475 -0.08940968
-0.04194005 -0.0425678 -0.031119473 -0.05582037 -0.08175778 -0.0668403 -0.043797802 -0.07334281
-0.06666183 -0.06873277 -0.05472255 -0.04597543 -0.040717706 -0.0831185 -0.079001285 -0.026318042
-0.062728286 -0.020165378 -0.05663124 -0.028350666 -0.004301481 -0.06354914 -0.040547732 -0.02297198
-0.0069501707 0.0050549735 -0.012927491 -0.04109658 -0.05542991 -0.030750291 -0.009679643 0.0044081947
-0.00084249367 0.027538357 0.025126075 0.021056555 0.01493855 0.014357728 0.0101461075 0.023894839
0.02386328 0.013174724 0.013898557 -0.008673901 0.013875466 -0.00492544 0.009523729 -0.0053273374
0.03383716 -0.011067074 -0.021220008 -0.01978883 0.015115759 0.032973576 0.02521048 0.013869166
0.0055117216 0.0011522922 0.036687456 0.013109336 0.0346676 -0.02400125 0.015013164 0.011768096
-0.031351913 0.02848844 0.017960567 0.01008833 0.025379142 0.013377345 0.03874632 0.023959583
0.0058860653 0.009786541 0.0462039 0.018860303 0.012055022 -0.0010500996 0.026297832 0.0640915
0.030536827 0.038728368 0.0010946129 0.04272249 0.039199132 0.01947464 -9.078926e-05 -0.0049951803
0.028112493 0.021007549 0.01227523 -0.04100708 -0.027859025 -0.015759502 0.005826576 0.019757105
-0.004282789 -0.023531543 0.01270575 -0.026000245 -1.5762656e-05 0.0054158876 -0.0026258247 0.01688401
-0.0016499151 0.009630662 -0.0077656615 0.001282355 0.002403974 0.03725683 0.030525 0.01928126
-8.5747044e-05 0.0245766 -0.02783691 0.039146323 0.0028621822 -0.0018401184 -0.012688046 -0.0096521145
-0.019212136 0.044822644 0.010098548 0.022588111 -0.011638762 0.0111921625 -0.015213782 0.036198102
-0.019243626 -0.010829358 0.010681311 -0.012568842 0.015590985 0.004101968 -0.0049611274 0.012018286
-0.005309867 -0.008902644 0.015570422 0.012810363 0.007541281 -0.02686592 0.0013304164 0.012134379
-0.0138329705 -0.02847529 0.010052483 -0.029449612 -0.013018629 -0.0071683237 0.0018035613 -0.036497276
-0.00042133333 -0.0034913484 -0.0044996617 -0.013473807 0.012463418 -0.030572798 0.0026395996 0.042068537
00000000: d0c7 a8bd 8940 a4bd d6f8 88bd c58c 30bd
00000010: 02fd c5bd 06a8 21bd dee4 b8bd c24e c9bd
00000020: 3df2 04bd a0ea 7bbd 1dcc b1bd c03f 5ebd
00000030: 22d2 93bd f965 b9bd dfa0 7fbd 10a7 0ebd
00000040: 5320 77bd aea4 a0bd 20de 8dbd 0d3e 18bd
00000050: 1985 b0bd e187 acbd 33c2 bbbd bc52 9ebd
00000060: 0603 84bd c16c a3bd a071 8ebd 3fa5 b9bd
00000070: 8688 a9bd ce02 cabd 4f5c 2abd eda5 5abd
00000080: fa01 0dbd fd47 1cbd 7af6 87bd 7330 10bd
00000090: d04a aebd dcd0 8cbd 57c3 45bd 1f8c 2fbd
000000a0: f733 b3bd 7ae7 04bd 289c 57bd 9727 44bd
000000b0: af00 0bbd be3d a1bd 86fe 20bd 35e3 9ebd
000000c0: 9057 1fbd d88b 25bd 01d1 bebd 1ccd 8dbd
000000d0: ec7f 77bd 1558 6abd ff38 a0bd 0d47 86bd
000000e0: 7721 bbbd 18aa 95bd 6ec9 a2bd 1b87 89bd
000000f0: fb10 4cbd d651 57bd d7eb a0bd 2806 89bd
00000100: d39d afbd de17 8ebd f559 b1bd ffe2 14bd
00000110: 9f70 2fbd 17d4 a6bd a81a abbd e331 afbd
00000120: 38d6 40bd 0bae 99bd 9ac4 afbd d8e5 68bd
00000130: 6f68 6dbd 3571 b9bd 2ecf adbd 6e1a 05bd
00000140: ef1e abbd b0cb 93bd 5e03 0dbd af7b 54bd
00000150: bc88 a6bd a4aa aabd b6ee 3abd 79e0 b5bd
00000160: d0bf b5bd 49bf 9abd a461 c8bd dcee bdbd
00000170: 0794 5bbd 19f8 56bd 4cc9 89bd 6c1c b7bd
00000180: 54c9 2bbd 935b 2ebd 44ee febc e6a3 64bd
00000190: 9f70 a7bd 91e3 88bd 5365 33bd c134 96bd
000001a0: ff85 88bd c4c3 8cbd c124 60bd bc50 3cbd
000001b0: 9cc7 26bd 083a aabd 6dcb a1bd ef98 d7bc
000001c0: b077 80bd dd31 a5bc 29f6 67bd a83f e8bc
000001d0: 70f3 8cbb 0d26 82bd 6115 26bd bc2f bcbc
000001e0: 42be e3bb 31a4 a53b d4cd 53bc e354 28bd
000001f0: 790a 63bd 09e8 fbbc 5e97 1ebc 9e72 903b
00000200: cbda 5cba 1f98 e13c 33d5 cd3c cc7e ac3c
00000210: d2c0 743c ad3c 6b3c dc3b 263c 1cbf c33c
00000220: ed7c c33c ccda 573c c6b6 633c fa1c 0ebc
00000230: ec55 633c 9665 a1bb 6a09 1c3c f290 aebb
00000240: d598 0a3d ac52 35bc 95d5 adbc 2f1c a2bc
00000250: 17a8 773c 4d0f 073d 3586 ce3c 803b 633c
00000260: ac9b b43b 8308 973a 9645 163d 8ac8 563c
00000270: 9dff 0d3d 459e c4bc c6f9 753c f9ce 403c
00000280: dd6a 00bd 9760 e93c 0a22 933c 8649 253c
00000290: ebe7 cf3c a72c 5b3c 76b4 1e3d e346 c43c
000002a0: e5df c03b ba57 203c 4d40 3d3d ec80 9a3c
000002b0: 6d82 453c 7fa3 89ba 8d6e d73c 6842 833d
000002c0: 5e28 fa3c a3a1 1e3d 1d79 8f3a c7fd 2e3d
000002d0: 458f 203d 4889 9f3c 1d66 beb8 9cae a3bb
000002e0: 2c4c e63c 0618 ac3c 0c1e 493c 0af7 27bd
000002f0: 9c38 e4bc 121a 81bc ddec be3b a7d9 a13c
00000300: a356 8cbb 39c5 c0bc c72b 503c 77fe d4bc
00000310: 0c3a 84b7 c277 b13b 0716 2cbb 5650 8a3c
00000320: f741 d8ba edc9 1d3c 1777 febb b214 a83a
00000330: fe8b 1d3b 9e9a 183d 910f fa3c bcf3 9d3c
00000340: 18d3 b3b8 de54 c93c 3b0a e4bc e557 203d
00000350: 7393 3b3b 2130 f1ba 86e1 4fbc e723 1ebc
00000360: c562 9dbc f397 373d 6174 253c b40a b93c
00000370: 82b0 3ebc 555f 373c 3a43 79bc 7644 143d
00000380: cfa4 9dbc 9f6d 31bc aa00 2f3c 8bed 4dbc
00000390: 5571 7f3c cd69 863b f490 a2bb 58e8 443c
000003a0: 65fe adbb 65dc 11bc 151b 7f3c 8fe2 513c
000003b0: da1c f73b eb15 dcbc 5e61 ae3a 46cf 463c
000003c0: afa3 62bc 0345 e9bc 2bb3 243c 5040 f1bc
000003d0: 164c 55bc 42e4 eabb 7a65 ec3a 2b7e 15bd
000003e0: 67e6 dcb9 1bcf 64bb e671 93bb 3ec1 5cbc
000003f0: 5d33 4c3c ce73 fabc 22fd 2c3b 0f50 2c3d

encoder.0.bias f4 [16]
0.1119739 0.0922157 0.07519425 0.07844913 0.107168235 0.09516113 0.09690024 -0.15039167
0.06523883 0.06262442 0.06819448 0.08584751 0.053127784 0.09216154 0.11809726 0.059499126
00000000: 9252 e53d 96db bc3d 71ff 993d f0a9 a03d
00000010: 057b db3d d7e3 c23d a273 c63d 4600 1abe
00000020: f09b 853d 3b41 803d 8ca9 8b3d d2d0 af3d
00000030: 859c 593d 31bf bc3d fadc f13d 5bb5 733d

encoder.2.weight f4 [32, 16, 3, 3]
0.018838298 -0.041055612 -0.0009302994 0.07995665 0.030330364 0.048156954 0.009477079 0.039508086
-0.011473606 0.012387375 0.06886338 -0.019403785 0.019541163 -0.0050805914 0.0033129957 -0.049594305
0.019058019 0.018560689 -0.0139803495 -0.020277232 0.0692479 0.1062511 0.050423186 -0.0040254868
0.053212296 0.070592396 -0.0031241279 0.039526176 0.0814042 -0.046832036 0.073625274 0.049951866
-0.021192856 -0.03155443 0.04357776 0.029167354 -0.07983725 0.043488305 0.07126646 0.06270387
0.08530018 0.05851536 -0.01182429 0.015444438 0.03980596 -0.03820942 -0.08215843 0.0036684077
0.014955659 0.06248021 0.13005577 -0.07707205 -0.030369937 0.066277236 -0.06700652 0.07971272
-0.07557762 0.0023485594 0.0027274692 0.11157478 0.039241664 0.02322501 -0.038279515 -0.03478551
0.017332703 0.07814276 -0.3703182 -0.367833 -0.47634876 0.003448109 -0.05645015 -0.0829308
0.0002271533 -0.057394277 -0.003097266 0.13675065 -0.010238829 0.006147542 0.06506916 -0.043197773
-0.02035756 0.05090342 -0.060806762 0.040648036 0.05066282 0.07915737 0.07410385 -0.055615734
0.022492697 -0.020839285 -0.029706102 -0.07688679 0.0004414022 -0.037753813 0.040833425 0.12543193
-0.018856367 -0.015207331 0.077574745 0.07280471 -0.018069278 -0.07488176 0.08966041 0.041514907
-0.027105678 0.07724634 0.0300635 0.06622259 0.07886711 -0.02742505 0.022166084 0.0132313445
0.00321153 0.040669933 0.0580845 0.030020516 -0.012327681 -0.012112956 0.07439211 0.06565885
0.024181852 0.09582537 -0.01343466 0.012846461 0.033130735 -0.008545309 -0.006122808 0.017655432
0.025474846 -1.4471549e-05 0.0963072 0.13709822 -0.07176998 -0.02981922 0.04294362 0.07544704
-0.07654723 0.07683182 0.1061549 0.043698557 0.012082605 0.039911747 -0.012210241 0.022885263
0.034838777 0.06446828 0.0077577136 0.051229686 0.08732949 0.0026527059 -0.052928805 0.007594665
0.04439964 -0.021533808 0.07660271 0.07854879 0.039500237 0.121119894 0.03942563 0.069007635
0.06916257 -0.07479798 -0.08239329 -0.06814554 -0.030269524 0.12397141 0.04230208 0.090648904
-0.0071896613 -0.008041511 0.012564103 -0.061734717 -0.0673094 0.06477833 0.122572444 0.010980676
0.060983673 -0.006872972 0.04187566 -0.057077896 0.076158516 0.031997584 -0.04790505 0.08322585
0.13323843 0.09240175 0.04550944 0.015323083 0.04695364 -0.08149727 0.019841325 0.053525448
0.13212962 0.09045451 0.07061822 0.009691915 -0.068119794 -0.051753752 0.06863889 0.0576154
-0.065834105 0.0475272 -0.006212436 0.13249911 -0.07536652 -0.036907427 -0.048951738 -0.041744947
-0.035891514 -0.047436886 -0.1101207 -0.0819061 0.014378259 -0.01921932 0.08232203 -0.042417478
0.04540374 0.06102283 -0.06845139 -0.0037451268 -0.02567185 0.061316215 -0.037730824 -0.08283648
0.03909912 0.049529057 0.015735239 0.0231089 0.03037342 0.01067511 0.0113539575 -0.06958136
-0.0132909715 0.06752798 0.014250885 0.0015061697 0.0337347 0.049951393 -0.018201683 -0.0109855365
-0.07241471 -0.055772256 -0.06434285 -0.07206367 0.03847292 0.02161195 0.018655641 -0.011140791
0.041625086 -0.06911888 -0.051350176 0.05127717 -0.054134708 -0.054482304 0.0401645 0.110744044
00000000: c652 9a3c ee29 28bd 56df 73ba 50c0 a33d
00000010: 6277 f83c 3a40 453d c045 1b3c 3bd3 213d
00000020: cbfb 3bbc 6bf4 4a3c 3e08 8d3d b0f4 9ebc
00000030: ca14 a03c 177b a6bb d81e 593b 6623 4bbd
00000040: 901f 9c3c 960c 983c d60d 65bc 701c a6bc
00000050: d8d1 8d3d 2d9a d93d 8b88 4e3d 3be8 83bb
00000060: 23f5 593d bf92 903d 2bbe 4cbb 33e6 213d
00000070: 3fb7 a63d f3d2 3fbd d9c8 963d 549a 4c3d
00000080: a49c adbc 383f 01bd 987e 323d 60f0 ee3c
00000090: b681 a3bd cb20 323d 26f4 913d e36a 803d
000000a0: dcb1 ae3d cdad 6f3d abba 41bc ab0a 7d3c
000000b0: 930b 233d 7b81 1cbd ae42 a8bd ab69 703b
000000c0: 9508 753c 40eb 7f3d 572d 053e f3d7 9dbd
000000d0: 60ca f8bc 5cbc 873d b73a 89bd 6c40 a33d
000000e0: 70c8 9abd 4aea 193b 57bf 323b 5181 e43d
000000f0: debb 203d 6042 be3c fbca 1cbd 407b 0ebd
00000100: 50fd 8d3c 5009 a03d 599a bdbe 9b54 bcbe
00000110: fce3 f3be abf9 613b 4638 67bd a0d7 a9bd
00000120: 0030 6e39 4316 6bbd 80fb 4abb 5d08 0c3e
00000130: c3c0 27bc 5271 c93b fb42 853d 26f0 30bd
00000140: e6c4 a6bc 1b80 503d 8310 79bd 8e7e 263d
00000150: d183 4f3d 421d a23d c2c3 973d 53cd 63bd
00000160: 9b42 b83c 26b7 aabc 365a f3bc d276 9dbd
00000170: 006c e739 bea3 1abd f340 273d 3a71 003e
00000180: ab78 9abc 2b28 79bc 82df 9e3d a31a 953d
00000190: 0606 94bc 9c5b 99bd e19f b73d 890b 2a3d
000001a0: ba0c debc 5433 9e3d bb47 f63c b69f 873d
000001b0: 1485 a13d 80aa e0bc a695 b53c 48c8 583c
000001c0: 8878 523b 8495 263d 03ea 6d3d 96ed f53c
000001d0: 0bfa 49bc 6b75 46bc e45a 983d 2678 863d
000001e0: 0519 c63c 1740 c43d 0c1d 5cbc f679 523c
000001f0: 18b4 073d a001 0cbc d6a1 c8bb 20a2 903c
00000200: a0b0 d03c d4ca 72b7 b63c c53d 7a63 0c3e
00000210: 24fc 92bd 7047 f4bc a6e5 2f3d fa83 9a3d
00000220: cbc4 9cbd 005a 9d3d bd67 d93d 42fd 323d
00000230: 1ef6 453c 807a 233d 760d 48bc e079 bb3c
00000240: 1bb3 0e3d f207 843d 6b34 fe3b 38d6 513d
00000250: ced9 b23d 05d9 2d3b e0cb 58bd abdc f83b
00000260: 66dc 353d ab67 b0bc e2e1 9c3d 30de a03d
00000270: 00cb 213d b50d f83d c57c 213d e053 8d3d
00000280: 1ba5 8d3d af2f 99bd d0bd a8bd e48f 8bbd
00000290: cbf7 f7bc b9e4 fd3d f244 2d3d 22a6 b93d
000002a0: 4097 ebbb 8bc0 03bc abd9 4d3c 8bdd 7cbd
000002b0: 83d9 89bd 80aa 843d 4307 fb3d 4be8 333c
000002c0: 04ca 793d ab36 e1bb d085 2b3d 83ca 69bd
000002d0: fff8 9b3d e60f 033d 1638 44bd 5072 aa3d
000002e0: a86f 083e 213d bd3d 1b68 3a3d ab0d 7b3c
000002f0: 7652 403d 0ae8 a6bd 468a a23c 803d 5b3d
00000300: fd4c 073e 3740 b93d 49a0 903d d6ca 1e3c
00000310: 6482 8bbd befb 53bd 8c92 8c3d 20fe 6b3d
00000320: 08d4 86bd e2ab 423d b191 cbbb d9ad 073e
00000330: c359 9abd 3e2c 17bd 9e81 48bd c0fc 2abd
00000340: fb02 13bd 2e4d 42bd f686 e1bd 63be a7bd
00000350: ca92 6b3c d671 9dbc 7498 a83d f3bd 2dbd
00000360: 46f9 393d 13f3 793d 3e30 8cbd cd70 75bb
00000370: c64d d2bc b626 7b3d a38b 1abd 2ca6 a9bd
00000380: 6626 203d fbde 4a3d 30e7 803c e04e bd3c
00000390: aed1 f83c a8e6 2e3c f305 3a3c ac80 8ebd
000003a0: 60c2 59bc 1c4c 8a3d 8b7c 693c ab6a c53a
000003b0: 662d 0a3d d599 4c3d b21b 95bc aefc 33bc
000003c0: 2a4e 94bd 7371 64bd 2fc6 83bd 1e96 93bd
000003d0: c895 1d3d 8b0b b13c b7d3 983c dd87 36bc
000003e0: 117f 2a3d 338e 8dbd 9054 52bd 0308 523d
000003f0: 5bbc 5dbd d628 5fbd 8883 243d c6cd e23d

encoder.2.bias f4 [32]
0.00995231 0.04342256 0.11332457 0.093463674 0.007602867 0.10088806 0.026047926 0.10405102
0.03553849 0.0008759339 0.011756564 0.07901904 0.09912058 0.021224124 0.00787441 -0.011831309
0.09820498 -0.019845719 0.065378934 0.12689354 0.0073194467 0.021403912 0.00012751909 -0.00053789606
0.133709 0.054371014 0.13078727 0.008230082 0.07806226 0.060804885 0.008721543 0.014334251
00000000: 030f 233c dbdb 313d b616 e83d e269 bf3d
00000010: 7921 f93b 669e ce3d 7662 d53c b418 d53d
00000020: cf90 113d ee9e 653a 9a9e 403c bcd4 a13d
00000030: bbff ca3d 37de ad3c ab03 013c 1bd8 41bc
00000040: b11f c93d 7d93 a2bc 64e5 853d 61f0 013e
00000050: f8d7 ef3b 4257 af3c a5b6 0539 9801 0dba
00000060: 03eb 083e 24b4 5e3d 19ed 053e 77d7 063c
00000070: 1bdf 9f3d 8b0e 793d cde4 0e3c 35da 6a3c

encoder.4.weight f4 [64, 32, 3, 3]
0.034399673 0.051886108 -0.0006274331 -0.028177738 0.103516 0.07492716 -0.00017139719 -0.0012433531
0.04803165 -0.01311317 0.022659544 0.008803971 0.087495856 0.08375747 0.08159733 0.021592118
-0.0072473264 0.04066351 0.010915064 0.0013934592 0.05137072 0.014751189 0.02641792 0.07057075
-0.0023423673 -0.0009972717 0.0028099585 -0.026207859 -0.03808222 0.018033534 0.04560259 0.045672085
0.046766065 -0.026099646 -0.00589463 0.04769397 -0.026539035 -0.005864179 -0.023256553 0.09570624
0.08663805 0.02595748 -0.013140601 -0.021010885 -0.04143841 -0.04718144 0.011921032 -0.037038315
0.028408049 0.09390264 0.031775694 0.0009328011 -0.038627524 0.034757297 0.00091398956 -0.0011443221
-0.0386281 -0.0039864583 0.089104876 0.03227283 0.038536105 -0.027066622 0.0050158403 -0.050342914
-0.050626613 0.0055511263 0.063372925 0.050546292 -0.0011072552 0.0060180994 0.00463543 -0.026419984
-0.025296925 0.04834096 0.015590345 -0.010262607 0.08889958 0.031720832 -0.046651885 0.034539998
-0.056117054 0.050697237 0.040666506 0.029231165 0.053529277 0.050377995 0.0029605345 0.034179773
-0.0578864 0.034763176 -0.04625239 -0.0006398243 0.041897915 0.07098216 0.06171629 0.039971977
0.0012251035 0.03965139 -0.013639366 -0.01891689 -0.021586435 -0.03969976 0.111428425 0.10566493
0.03696137 -0.01568684 0.03110526 0.013577495 -0.021821229 -0.019586442 -0.00036867955 0.03757821
0.098439805 0.06040572 -0.030628713 -0.054267615 -0.01617306 -0.057924043 -0.042981286 -0.0021189118
-0.009527832 -0.010391682 0.0041852524 0.021955501 0.032683738 -0.0060425163 -0.010788132 0.052151788
-0.047346584 -0.007715879 0.06519144 0.0065623224 -0.016701749 0.0570798 -0.030984411 0.048924517
0.0005011541 -0.031193556 0.07603416 0.005062449 0.020534761 0.058570802 -0.018723907 0.018791692
0.037127048 -0.0025956628 0.0061588557 0.053604666 0.050518304 0.017098064 0.039201822 -0.046258345
-0.04459796 -0.027554078 0.030248836 -0.019622188 0.06584842 0.017702375 0.05206115 -0.014009325
0.015505713 -0.042302124 -0.0058100275 0.016774803 0.002918922 0.06807292 0.060811162 0.029839385
-0.04120996 0.03356446 0.024191659 -0.004829558 0.029716332 0.0435099 0.060249988 0.08375423
0.041961208 -0.024799958 -0.022823347 0.035359766 0.009596493 0.049869724 0.0516873 0.05719682
0.11464771 0.008988033 -0.046781737 0.025361465 0.05779905 0.03720282 -0.0056281355 0.012131641
0.012481748 0.1113033 -0.0047468576 0.04732065 0.012447123 0.027154926 -0.054635227 0.032333475
-0.0017743472 0.02674078 0.020762913 0.029410508 0.019987335 0.048112832 0.051951244 -0.047938593
-0.008208906 -0.00622693 -0.02886015 0.09311785 -0.04455211 0.00923554 -0.04347801 0.022927562
-0.025962908 -0.030699076 0.006084333 0.012690911 0.03703799 0.019013124 -0.03449799 -0.034712832
-0.037591826 0.004309726 0.032169476 -0.033936292 -0.0049181134 0.062463064 -0.0003953945 0.047630787
-0.04684715 0.012612466 0.019419314 0.026534062 0.04114695 -0.0036134683 0.08378246 0.039371755
-0.03211095 -0.00979726 -0.0015882478 -0.019465249 0.017528333 0.027315695 0.04557736 0.092968844
-0.0018644166 -0.0006654847 -0.008921273 0.009925948 -0.03225936 0.0210422 -0.04606137 -0.028695988
00000000: ace6 0c3d 8786 543d 537a 24ba 00d5 e6bc
00000010: 3200 d43d 6973 993d 15b9 33b9 02f8 a2ba
00000020: d6bc 443d 9fd8 56bc 82a0 b93c 883e 103c
00000030: 0731 b33d 0989 ab3d 801c a73d f4e1 b03c
00000040: fb7a edbb c88e 263d 19d5 323c bba4 b63a
00000050: 1b6a 523d f9ae 713c 656a d83c 6687 903d
00000060: 6782 19bb e3b6 82ba 4827 383b ddb1 d6bc
00000070: 1afc 1bbd 10bb 933c c8c9 3a3d a712 3b3d
00000080: c68d 3f3d edce d5bc be27 c1bb c15a 433d
00000090: 6468 d9bc 4d28 c0bb 8784 bebc a201 c43d
000000a0: 4a6f b13d c8a4 d43c ad4b 57bc 051f acbc
000000b0: 52bb 29bd 5341 41bd 6f50 433c 7db5 17bd
000000c0: ffb7 e83c 0750 c03d 3b27 023d 3987 743a
000000d0: e537 1ebd ab5d 0e3d cd98 6f3a 14fd 95ba
000000e0: 8038 1ebd d6a0 82bb 9e7c b63d 8430 043d
000000f0: 09d8 1d3d d2ba ddbc eb5b a43b 5f34 4ebd
00000100: da5d 4fbd 39e6 b53b aac9 813d a109 4f3d
00000110: 5221 91ba 7a33 c53b cee4 973b b96e d8bc
00000120: 7f3b cfbc 2c01 463d a56e 7f3c 7e24 28bc
00000130: fc10 b63d b4ed 013d 0c16 3fbd d079 0d3d
00000140: ffda 65bd e8a7 4f3d ec91 263d 3276 ef3c
00000150: 8441 5b3d 2859 4e3d 8705 423b 1700 0c3d
00000160: 4a1a 6dbd d563 0e3d 2573 3dbd e2b9 27ba
00000170: 269d 2b3d 185f 913d 38ca 7c3d a8b9 233d
00000180: a793 a03a 7f69 223d a677 5fbc 98f7 9abc
00000190: 09d6 b0bc 379c 22bd 9634 e43d db66 d83d
000001a0: ce64 173d b081 80bc 75d0 fe3c 2474 5e3c
000001b0: 6fc2 b2bc bf73 a0bc 554b c1b9 9ceb 193d
000001c0: cf9a c93d fd6b 773d 11e9 fabc b847 5ebd
000001d0: 5d7d 84bc c341 6dbd 250d 30bd 71dd 0abb
000001e0: a01a 1cbc e041 2abc 7124 893b 06dc b33c
000001f0: 62df 053d 4d00 c6bb b5c0 30bc 1d9d 553d
00000200: 7eee 41bd 7cd5 fcbb 1783 853d c008 d73b
00000210: 1bd2 88bc 82cc 693d 05d3 fdbc 1365 483d
00000220: e25f 033a a189 ffbc ccb7 9b3d e6e2 a53b
00000230: 8438 a83c f0e7 6f3d e162 99bc 09f1 993c
00000240: 8812 183d ff1b 2abb 3ad0 c93b 9190 5b3d
00000250: 48ec 4e3d 3d11 8c3c 1792 203d 6479 3dbd
00000260: 5aac 36bd 17b9 e1bc 68cc f73c b6be a0bc
00000270: 89db 863d 9204 913c 133e 553d 5e87 65bc
00000280: ad0b 7e3c fe44 2dbd 0b62 bebb 506b 893c
00000290: 634b 3f3b d169 8b3d 2015 793d ba71 f43c
000002a0: c6cb 28bd e37a 093d 962d c63c 4541 9ebb
000002b0: aa6f f33c 7037 323d b1c8 763d 5687 ab3d
000002c0: 84df 2b3d 4829 cbbc 07f8 babc 67d5 103d
000002d0: 9c3a 1d3c 3244 4c3d 10b6 533d 3647 6a3d
000002e0: 6bcc ea3d 8b42 133c 359e 3fbd d9c2 cf3c
000002f0: b2be 6c3d fc61 183d 396c b8bb cac3 463c
00000300: 3f80 4c3c fcf2 e33d 878b 9bbb 4cd3 413d
00000310: 05ef 4b3c 0274 de3c 30c9 5fbd 1b70 043d
00000320: 3691 e8ba 7b0f db3c fc16 aa3c 4eee f03c
00000330: 7bbc a33c f611 453d d4ca 543d 425b 44bd
00000340: a67e 06bc 460b ccbb 1f6c ecbc 92b4 be3d
00000350: 467c 36bd aa50 173c ff15 32bd 95d2 bb3c
00000360: 2ab0 d4bc a17c fbbc 165f c73b 8aed 4f3c
00000370: 26b5 173d 69c1 9b3c c44d 0dbd 0b2f 0ebd
00000380: e3f9 19bd 9a38 8d3b 24c4 033d c800 0bbd
00000390: 2028 a1bb 45d9 7f3d f44c cfb9 8018 433d
000003a0: cce2 3fbd 84a4 4e3c 4115 9f3c f65d d93c
000003b0: b489 283d f0cf 6cbb 2396 ab3d 4744 213d
000003c0: c686 03bd b084 20bc c12c d0ba 9675 9fbc
000003d0: 9497 8f3c 2ac5 df3c 53af 3a3d 7366 be3d
000003e0: 715f f4ba ec73 2eba 882a 12bc 72a0 223c
000003f0: 6422 04bd b160 ac3c d9aa 3cbd d913 ebbc

encoder.4.bias f4 [64]
0.08519248 0.093956955 0.04361311 0.089216195 0.108925276 -0.004892766 0.014789183 -0.054276127
0.050320055 0.04207512 0.07822627 -0.027242137 0.007882541 -0.012434642 0.067763045 0.1085662
0.07428193 -0.050859123 -0.10313267 0.085403256 -0.030042093 0.10831255 0.06693867 0.08864038
-0.07461716 0.09067876 0.11543223 -0.09673594 0.044204853 0.08805649 -0.007977231 0.15143856
0.05713986 -0.0058870423 -0.06348281 0.054767042 -0.07624267 0.043681197 0.07866513 0.042129807
-0.023044892 -0.04133052 0.08878166 -0.055346243 0.090671405 -0.0068436074 0.054750323 0.08664625
-0.08536654 0.016539833 0.018917674 0.02894638 -0.0757148 0.09890333 0.079808116 -0.072406106
0.082043335 0.067590706 -0.030843174 0.1112783 0.081427895 0.09286534 0.062347453 0.11227306
00000000: 6579 ae3d 816c c03d a9a3 323d fbb6 b63d
00000010: 3714 df3d 7f53 a0bb 544e 723c a550 5ebd
00000020: 671c 4e3d f656 2c3d 1835 a03d e72a dfbc
00000030: c625 013c abba 4bbc 5ac7 8a3d f557 de3d
00000040: 2021 983d a851 50bd 3937 d3bd e7e7 ae3d
00000050: d61a f6bc f8d2 dd3d 2417 893d 1689 b53d
00000060: e2d0 98bd c9b5 b93d bc67 ec3d 7e1d c6bd
00000070: 2610 353d f656 b43d efb2 02bc b612 1b3e
00000080: 7c0b 6a3d 17e8 c0bb 4703 82bd 6853 603d
00000090: 1e25 9cbd 0eeb 323d 2f1b a13d 4e90 2c3d
000000a0: a4c8 bcbc 314a 29bd 29d3 b53d beb2 62bd
000000b0: eeb1 b93d 5740 e0bb e041 603d 9773 b13d
000000c0: a7d4 aebd 8b7e 873c 3df9 9a3c f520 ed3c
000000d0: 5c10 9bbd d48d ca3d 7072 a33d a749 94bd
000000e0: 5606 a83d ff6c 8a3d d3aa fcbc e1e5 e33d
000000f0: abc3 a63d 2f30 be3d 0b60 7f3d 6bef e53d

decoder.0.weight f4 [64, 32, 3, 3]
-0.020335777 0.037819695 0.03847097 0.014841991 0.097702555 0.048612762 -0.037991274 0.046945006
-0.027442023 -0.011180245 0.031346515 -0.014621697 0.033169195 0.07135927 0.11455712 -0.03888903
0.014718691 0.025482181 -0.04213063 0.023033477 0.0033678915 0.030591689 0.115136 0.009299888
-0.053601716 -0.018829597 -0.03970269 -0.05060164 -0.014789997 0.05427289 0.09900219 0.08893542
-0.01293455 -0.020175528 -0.036943596 -0.012972723 0.011288359 -0.025885092 0.0009973279 0.050953377
0.121574305 -0.013131426 0.048560902 -0.05092686 -0.022931833 0.016042003 -0.0020414249 0.0051785484
-0.013149098 0.045576792 0.007685591 0.020972244 -0.0026549213 0.0016914584 0.04266113 -0.023121255
0.010367232 -0.002102878 -0.07913099 0.02967953 -0.03616466 -0.045779224 -0.022300642 -0.009406215
0.04893254 0.0043612295 -0.019675437 -0.0062200082 -0.040890846 -0.03464875 0.03349164 -0.018420905
0.042159423 0.039643116 0.044737305 0.05142237 -0.0066511985 0.038188137 -0.050513566 0.05309008
-0.024809694 0.00648869 -0.04747112 -0.032203924 -0.03285756 -0.030562542 -0.022321599 0.0061277654
0.055600367 0.009675933 -0.01708573 -0.022142451 0.024410808 0.011325468 0.093412474 -0.054781083
0.04369357 0.032408867 -0.014441302 0.024333315 -0.040553305 0.029491393 -0.02150117 0.0006975653
0.05039413 0.0068731112 0.028334456 0.05431765 -0.026869811 0.009297602 0.018178646 -0.0030254647
-0.018125318 0.071322694 0.015443715 -0.011619198 0.05294527 0.044517126 -0.048605796 -0.0418841
0.09129404 0.04169719 0.08704803 -0.01647356 -0.0565046 0.04383369 -0.040988863 -0.023517646
0.049688824 0.07427621 0.060597755 0.05196949 -0.050648697 0.03276477 -0.013548568 0.03343358
0.051769044 0.04751829 -0.032379318 0.07365215 -0.02405357 0.019542834 -0.055844765 0.05499152
-0.015893282 0.05760886 0.015319431 -0.021144573 0.025752941 -0.027636765 0.05337658 0.055285335
0.056951273 -0.043701794 0.032341603 -0.050049264 0.02091792 0.10713878 -0.051940873 0.045672897
-0.013943716 0.044410437 -0.047796387 -0.032504506 0.024547406 0.035964563 0.049094465 0.05360506
-0.049188197 0.031033743 -0.025280109 0.046711646 -0.026707307 -0.04681721 0.08631077 0.08547102
0.025282774 -0.053637892 -0.03244638 0.037767474 -0.039618433 0.057760976 0.04555757 0.07203223
0.10091843 0.026931882 -0.042277273 0.015521821 0.0041580186 0.002440731 -0.009336616 0.03989323
0.031909093 0.031415552 0.09371538 -0.012312345 0.05832793 0.0035154053 0.035878446 -0.026068922
0.027627632 0.017519813 0.083389536 -0.005769986 0.044019382 -0.01241101 0.031485207 -0.05173327
0.01599515 -0.024426958 0.00708465 0.064457014 0.0036461493 -0.01814164 0.050801598 0.020077845
0.048483487 -0.008548849 -0.03417015 0.0685295 0.072773434 0.030477531 0.038963918 -0.034387697
0.03358754 0.022866491 0.0452048 -0.041101094 0.042312287 0.015077258 0.011240008 -0.005400128
-0.008350211 0.051309776 -0.03631135 0.0065877 0.03674642 0.041302256 0.10527233 0.011935368
-0.0063126776 0.04813661 -0.03206139 0.047843613 -0.036298946 0.037181754 0.09638125 -0.0019760523
0.09279733 -0.0076903948 -0.045241587 -0.02692852 -0.04435137 0.058021 0.0080222525 -0.027369874
00000000: 3797 a6bc d3e8 1a3d bc93 1d3d d22b 733c
00000010: 4718 c83d 2d1e 473d bd9c 1bbd 6849 403d
00000020: 18ce e0bc 592d 37bc 3465 003d d88f 6fbc
00000030: 6cdc 073d cf24 923d ec9c ea3d 1b4a 1fbd
00000040: aa26 713c 02c0 d03c 2b91 2cbd b4b0 bc3c
00000050: d8b7 5c3b 6c9b fa3c 6ccc eb3d 8f5e 183c
00000060: 798d 5bbd 8740 9abc 4a9f 22bd aa43 4fbd
00000070: be51 72bc 404d 5e3d a9c1 ca3d c623 b63d
00000080: 6feb 53bc 2647 a5bc 2b52 17bd 8b8b 54bc
00000090: cff2 383c f90c d4bc c5b8 823a 7db4 503d
000000a0: f3fb f83d 3125 57bc cce7 463d af98 50bd
000000b0: 8adb bbbc 856a 833c 6dc9 05bb d0b0 a93b
000000c0: 506f 57bc bbae 3a3d 69d7 fb3b fccd ab3c
000000d0: 30fe 2dbb edb3 dd3a 70bd 2e3d c968 bdbc
000000e0: 53db 293c 70d0 09bb 6e0f a2bd 7c22 f33c
000000f0: 6521 14bd ff82 3bbd d6af b6bc 861c 1abc
00000100: 7d6d 483d a5e8 8e3b 622e a1bc 36d1 cbbb
00000110: 297d 27bd d9eb 0dbd 882e 093d 70e7 96bc
00000120: 5caf 2c3d d260 223d 773e 373d 43a0 523d
00000130: 4cf2 d9bb 2a6b 1c3d 50e7 4ebd fc74 593d
00000140: b33d cbbc 149f d43b 1471 42bd 43e8 03bd
00000150: a695 06bd 4c5e fabc c9db b6bc 6ccb c83b
00000160: 36bd 633d ce87 1e3c 5ff7 8bbc 1664 b5bc
00000170: 2df9 c73c 758e 393c 0a4f bf3d 2162 60bd
00000180: 07f8 323d 29bf 043d 369b 6cbc a956 c73c
00000190: 391b 26bd ef97 f13c 3923 b0bc d1dc 363a
000001a0: 136a 4e3d d637 e13b a91d e83c 2f7c 5e3d
000001b0: 141e dcbc f854 183c 62eb 943c e046 46bb
000001c0: 8c7b 94bc a211 923d a307 7d3c 735e 3ebc
000001d0: 24dd 583d 9757 363d df16 47bd a98e 2bbd
000001e0: 5ff8 ba3d acca 2a3d 3d46 b23d 8ff3 86bc
000001f0: 5e71 67bd f58a 333d f0e3 27bd 14a8 c0bc
00000200: 8286 4b3d 201e 983d 5a35 783d f6dd 543d
00000210: 0275 4fbd 5a34 063d d0fa 5dbc a6f1 083d
00000220: c70b 543d 8aa2 423d 2da0 04bd f0d6 963d
00000230: fe0b c5bc 4b18 a03c 7bbd 64bd ca3e 613d
00000240: a132 82bc 45f7 6b3d 5afe 7a3c 6237 adbc
00000250: d5f7 d23c 7f66 e2bc 67a1 5a3d e072 623d
00000260: bd45 693d a700 33bd a178 043d 7500 4dbd
00000270: 0f5c ab3c 946b db3d f4bf 54bd 8113 3b3d
00000280: 2f74 64bc b8e7 353d 25c6 43bd 7223 05bd
00000290: a417 c93c 944f 133d 4717 493d fb90 5b3d
000002a0: 9079 49bd 7a3a fe3c 3b18 cfbc b654 3f3d
000002b0: 48c9 dabc 67c3 3fbd b3c3 b03d 6e0b af3d
000002c0: d21d cf3c 68b3 5bbd 7fe6 04bd 11b2 1a3d
000002d0: f046 22bd c696 6c3d 939a 3a3d a285 933d
000002e0: 52ae ce3d 40a0 dc3c ef2a 2dbd 3c4f 7e3c
000002f0: fd3f 883b acf4 1f3b 9bf8 18bc 1567 233d
00000300: 1cb3 023d 98ad 003d d9ed bf3d b8b9 49bc
00000310: 44e9 6e3d b762 663b 47f5 123d 7e8e d5bc
00000320: 5853 e23c b685 8f3c 22c8 aa3d 2712 bdbb
00000330: ab4d 343d 8d57 4bbc a2f6 003d 44e6 53bd
00000340: 4308 833c 0b1b c8bc 5a26 e83b 0a02 843d
00000350: 3cf4 6e3b c79d 94bc 5615 503d 4b7a a43c
00000360: 9f96 463d 7910 0cbc 00f6 0bbd 3259 8c3d
00000370: 3d0a 953d 04ac f93c a198 1f3d 1dda 0cbd
00000380: 1793 093d 8252 bb3c ab28 393d 9f59 28bd
00000390: a64f 2d3d 9b06 773c 0328 383c 8ff3 b0bb
000003a0: 53cf 08bc 332a 523d 36bb 14bd a2dd d73b
000003b0: 6a83 163d 8e2c 293d 0599 d73d 908c 433c
000003c0: 94da cebb e52a 453d ce52 03bd aaf7 433d
000003d0: 34ae 14bd e54b 183d 8863 c53d a880 01bb
000003e0: 870c be3d b5ff fbbb 3e4f 39bd 3399 dcbc
000003f0: c8a9 35bd 6ea7 6d3d c46f 033c c936 e0bc

decoder.0.bias f4 [32]
0.040741548 0.17957246 0.0548901 0.07222298 0.03749001 0.043777596 -0.08628266 -0.06404735
-0.00054155005 0.018474352 0.027037557 0.009731072 0.062374573 0.08540953 0.14575319 0.039409883
-0.051869936 0.009152492 0.04330324 0.07155835 0.08324936 0.02214977 0.064782605 0.06318052
0.092257164 0.022951324 0.082613975 0.031839475 -0.016470285 0.08640091 0.05735786 0.05671047
00000000: 9ce0 263d d8e1 373e 71d4 603d a4e9 933d
00000010: 208f 193d 2350 333d f7b4 b0bd 422b 83bd
00000020: cff6 0dba 8657 973c de7d dd3c 136f 1f3c
00000030: 7b7c 7f3d 31eb ae3d 5340 153e 426c 213d
00000040: 9275 54bd 55f4 153c bd5e 313d 2f8d 923d
00000050: a47e aa3d 6f73 b53c beac 843d ca64 813d
00000060: 53f1 bc3d 6a04 bc3c 8431 a93d 1c6a 023d
00000070: b1ec 86bc f6f2 b03d 13f0 6a3d 3d49 683d

decoder.2.weight f4 [32, 16, 3, 3]
-0.07192146 -0.06504282 -0.036246322 0.05083279 -0.05055254 0.053509224 0.08151069 -0.05735424
-0.00043774646 0.02552408 0.080428556 -0.03105992 0.0850822 -0.031560667 0.013661906 0.04480788
0.002517144 0.058774553 -0.046528243 -0.03745231 0.071370825 0.024702527 0.1185183 -0.027646929
-0.041715108 -0.048579358 -0.06487524 -0.04755958 -0.06984653 0.059951954 0.01675724 0.076307334
0.084986806 -0.04991483 0.042307865 0.047999732 0.021733493 0.033429347 -0.07011548 0.13866366
0.011329897 0.016349306 -0.048920225 -0.022284528 -0.00014462075 0.051265 -0.067058966 0.020298958
0.08029941 0.104695916 -0.01512245 -0.03722158 -0.048713766 -0.07627129 -0.0020537775 -0.009094587
0.009914627 -0.0050479244 0.10015706 0.03654827 -0.04876905 0.04900252 -0.015972625 0.07242334
-0.08157039 0.039635748 -0.014054143 0.013821213 0.042563435 0.054508388 -0.073812984 0.041584842
-0.060881834 0.0014778476 -0.036069684 -0.0118576 0.05699068 0.015851768 0.076183096 -0.039993834
-0.041257232 0.025264323 0.02222388 0.039870203 0.12238583 0.14699486 -0.029757103 -0.03977568
-0.04958546 -0.068739116 -0.06463655 -0.0025445323 0.07618724 -0.025175821 0.13003395 0.07353387
-0.01959629 0.059751384 -0.0026617646 -0.08250184 0.07434531 -0.051519535 0.14888127 0.0377531
0.05093396 -0.049853396 0.081144705 0.03209266 -0.05802087 0.063894175 0.014426152 -0.029425157
0.13874136 0.09439306 -0.06963484 -0.083117515 -0.08215946 -0.07357197 0.023459494 -0.025703242
-0.043061376 0.030330999 -0.019831412 0.023364952 -0.07291701 0.03081127 0.021502327 -0.015125911
0.04285152 -0.052590936 -0.010204331 -0.02998722 -0.02331552 0.047088444 -0.08196218 0.01476576
-0.014638295 0.015086383 0.059413016 0.04396074 0.05085575 0.029456 0.02114303 0.044558518
-0.00611041 0.075403824 0.06820789 0.059660226 -0.054345112 0.13007733 0.08107837 0.006797006
0.059456192 0.009720743 -0.07310608 0.010792832 -0.10939857 -0.045004852 -0.15921539 -0.050201148
0.08258729 0.049961083 0.048965573 0.014684429 0.017922988 -0.099496126 -0.11277608 -0.23331031
0.0026458404 0.07916227 -0.06524576 -0.017417729 0.083166376 -0.017602772 -0.20522974 -0.073344365
-0.16826805 0.067957334 -0.04158377 -0.07063596 -0.06059598 -0.06951411 0.07584929 0.1689192
0.17104639 0.17324798 0.0068757734 -0.042853743 -0.026317924 0.077687085 0.019177329 -0.06263792
-0.18628629 -0.15648045 -0.09084433 -0.019313943 -0.059694253 0.06998165 -0.05187308 0.0731137
-0.03578624 0.12950325 0.2260823 0.06913435 0.0751165 0.03502214 0.068881385 0.081805974
0.08226811 -0.014017592 -0.084087715 -0.030203331 -0.18687582 0.05273992 0.041857064 -0.0118862195
0.013276706 -0.03834676 -0.0580357 -0.12568359 -0.12565207 -0.17713974 -0.06687533 -0.04513244
0.009576261 -0.046412885 -0.07981279 0.009596567 0.084938206 0.17144197 0.12139146 -0.06911089
-0.0013329387 0.021113575 -0.06628479 -0.01760622 -0.04117202 -0.115191005 -0.042951085 -0.16505738
-0.016533941 -0.00745676 0.026538223 -0.0357054 -0.07252635 0.01609101 0.11739867 0.20669653
0.03394731 -0.06138604 -0.016904583 0.07724477 0.06474036 -0.020083219 -0.07181256 0.1329976
00000000: 8f4b 93bd 2c35 85bd 0677 14bd 0b36 503d
00000010: 2e10 4fbd 7d2c 5b3d 14ef a63d 48ec 6abd
00000020: 5681 e5b9 e017 d13c bab7 a43d 6071 febc
00000030: 943f ae3d c245 01bd 30d6 5f3c 7888 373d
00000040: abf6 243b 96bd 703d 6694 3ebd 9867 19bd
00000050: de2a 923d f45c ca3c b9b9 f23d d07b e2bc
00000060: 76dd 2abd 26fb 46bd 4fdd 84bd d6cd 42bd
00000070: b30b 8fbd 2e90 753d 7b46 893c 0547 9c3d
00000080: 900d ae3d 7e73 4cbd 034b 2d3d 5e9b 443d
00000090: 700a b23c 36ed 083d b498 8fbd d9fd 0d3e
000000a0: 08a1 393c fbee 853c 9360 48bd 0b8e b6bc
000000b0: 56a5 17b9 40fb 513d 3656 89bd 004a a63c
000000c0: 0474 a43d d06a d63d 27c4 77bc a875 18bd
000000d0: 1688 47bd 1f34 9cbd ab98 06bb 7601 15bc
000000e0: f670 223c 0f69 a5bb 251f cd3d a4b3 153d
000000f0: 0ec2 47bd deb6 483d 06d9 82bc b052 943d
00000100: 600e a7bd 1859 223d 5943 66bc 5e72 623c
00000110: ff56 2e3d 3044 5f3d 432b 97bd de54 2a3d
00000120: 3b5f 79bd 56b4 c13a cebd 13bd 6146 42bc
00000130: 0f6f 693d 91db 813c e205 9c3d 93d0 23bd
00000140: 58fd 28bd 20f7 ce3c db0e b63c f04e 233d
00000150: 6ca5 fa3d d285 163e 2bc5 f3bc d3eb 22bd
00000160: 201a 4bbd 18c7 8cbd 2b60 84bd 2bc2 26bb
00000170: 0e08 9c3d 863d cebc 9f27 053e ed98 963d
00000180: 6688 a0bc debd 743d 0071 2ebb baf6 a8bd
00000190: 5b42 983d 2606 53bd 5574 183e ffa2 1a3d
000001a0: 21a0 503d 1333 4cbd 322f a63d 9873 033d
000001b0: 4ba7 6dbd f3da 823d ab5b 6c3c 070d f1bc
000001c0: 3712 0e3e 2651 c13d b69c 8ebd 8439 aabd
000001d0: 3843 a8bd e7ac 96bd 202e c03c 9b8f d2bc
000001e0: 2061 30bd b778 f83c 7c75 a2bc db67 bf3c
000001f0: 8355 95bd eb67 fc3c a625 b03c abd2 77bc
00000200: 1385 2f3d 9869 57bd 1130 27bc c2a7 f5bc
00000210: 3000 bfbc d0df 403d cadb a7bd 16ec 713c
00000220: 76d5 6fbc e02c 773c 105b 733d 2d10 343d
00000230: 1e4e 503d b64d f13c 2634 ad3c fe82 363d
00000240: d639 c8bb 526d 9a3d 94b0 8b3d 485e 743d
00000250: fb98 5ebd fe32 053e 6b0c a63d 6bb9 de3b
00000260: 5688 733d c043 1f3c a4b8 95bd 6bd4 303c
00000270: 5c0c e0bd 0257 38bd 5c09 23be b89f 4dbd
00000280: 8623 a93d fea3 4c3d 2090 483d f696 703c
00000290: 3bd3 923c a0c4 cbbd 25f7 e6bd e6e8 6ebe
000002a0: d665 2d3b d41f a23d 929f 85bd a0af 8ebc
000002b0: 2253 aa3d b033 90bc bf27 52be 9235 96bd
000002c0: 764e 2cbe 372d 8b3d be53 2abd 96a9 90bd
000002d0: 7e33 78bd 6a5d 8ebd df56 9b3d 28f9 2c3e
000002e0: c926 2f3e eb67 313e 2b4e e13b 6887 2fbd
000002f0: b098 d7bc 681a 9f3d c619 9d3c 4f48 80bd
00000300: d5c1 3ebe 693c 20be 980c babd 4638 9ebc
00000310: f681 74bd 8a52 8f3d de78 54bd a3bc 953d
00000320: 9894 12bd 809c 043e 1e82 673e 4f96 8d3d
00000330: aed6 993d 6073 0f3d af11 8d3d e489 a73d
00000340: 2f7c a83d 0baa 65bc 2e36 acbd fa6c f7bc
00000350: 605c 3fbe d005 583d 5072 2b3d 6bbe 42bc
00000360: 8b86 593c 7e11 1dbd d8b6 6dbd 33b3 00be
00000370: f0aa 00be 1f64 35be eff5 88bd cbdc 38bd
00000380: c0e5 1c3c 701b 3ebd e374 a3bd eb3a 1d3c
00000390: 15f4 ad3d 7c8e 2f3e 169c f83d 038a 8dbd
000003a0: 00b6 aeba 60f6 ac3c 52c0 87bd eb3a 90bc
000003b0: fea3 28bd 43e9 ebbd 7aed 2fbd cd04 29be
000003c0: 3072 87bc d657 f4bb b066 d93c d33f 12bd
000003d0: b288 94bd 4bd1 833c b76e f03d 41a8 533e
000003e0: 560c 0b3d ee6f 7bbd 7b7b 8abc 8232 9e3d
000003f0: 9896 843d 9085 a4bc 7712 93bd 8630 083e

decoder.2.bias f4 [16]
0.06658389 0.116923004 0.09798654 0.070196226 0.23743749 0.076234624 0.09102106 0.063224606
0.079023175 0.15279196 0.122387886 0.120954745 0.058023047 0.09954352 0.07379006 0.06612637
00000000: 225d 883d 5475 ef3d 2bad c83d 0ac3 8f3d
00000010: d022 733e e620 9c3d 4069 ba3d e77b 813d
00000020: e7d6 a13d 7f75 1c3e 80a6 fa3d 1fb7 f73d
00000030: 93a9 6d3d 79dd cb3d 3e1f 973d 436d 873d

decoder.4.weight f4 [16, 1, 129, 7]
-0.02805755 -0.057644334 -0.020750478 -0.058347266 -0.04405889 -0.07461368 -0.013317252 -0.016324
-0.033758562 -0.041212756 -0.03141422 -0.05480131 -0.079256974 -0.04825977 -0.033248644 -0.055493366
-0.06135733 -0.059785202 -0.06309911 -0.026006415 -0.07612276 -0.070179336 -0.053319488 -0.0496756
-0.041526023 -0.045589842 -0.030597402 -0.02316796 -0.017929798 -0.045997065 -0.020625401 -0.020710537
-0.07749079 -0.054624096 -0.06448304 -0.05449737 -0.0705767 -0.05583679 -0.0708465 -0.03285145
-0.061097626 -0.07390791 -0.06568475 -0.07021227 -0.022676216 -0.04485248 -0.04818515 -0.042800315
-0.035410352 -0.058040757 -0.08056964 -0.07532704 -0.048802476 -0.07099431 -0.021997951 -0.04111625
-0.03967441 -0.031626288 -0.056744665 -0.015459683 -0.014016804 -0.04621754 -0.017615527 -0.06667073
-0.06525451 -0.05472154 -0.024116842 -0.042279772 -0.050904974 -0.0576708 -0.024544079 -0.06333154
-0.032988094 -0.052239586 -0.06137005 -0.052448194 -0.071111985 -0.05355605 -0.04949719 -0.024430947
-0.024343692 -0.07703047 -0.037647106 -0.05743506 -0.015483945 -0.0465659 -0.053912472 -0.032615926
-0.079795845 -0.04096282 -0.060295556 -0.062184084 -0.05432035 -0.018064331 -0.066951394 -0.0467715
-0.05661328 -0.014350682 -0.043380328 -0.022807669 -0.054635584 -0.06593037 -0.040425617 -0.057840455
-0.06476317 -0.0013211321 -0.012183822 0.022187712 -0.019061226 -0.0071467995 -0.0038508454 0.016479071
-0.003245274 0.008771158 -0.022906024 0.020552326 0.01556796 -0.0153913805 0.007696825 -0.0013224619
0.004863782 0.010364714 -0.017179359 0.0038653112 0.023704512 0.043753706 0.032875553 0.036224056
0.051353995 0.033257317 0.04468134 0.032833233 0.047674242 -0.007757746 0.017688068 0.04580072
0.04860352 0.034369852 0.048829734 0.038766533 0.02938582 0.018543007 0.014457266 0.047910012
0.024370052 0.037626915 0.028754147 0.028615965 0.04335666 0.05194124 0.01289105 0.018645098
0.059875347 0.027633386 0.021700991 0.051853806 0.028003681 0.03989729 0.054785617 0.025144015
0.03625902 0.008184291 0.014823344 0.030888211 0.044618618 0.027654596 0.027592257 0.04323636
0.008912702 0.011016017 -0.008416801 0.018150799 0.028450344 0.037426144 0.03402999 0.0028065387
0.00050672883 0.029969985 0.015446811 0.036302876 0.0348304 0.0045032585 0.013218074 0.039080188
0.04792095 0.0011368154 0.01935087 0.051995263 0.03702853 0.010890533 0.013479651 0.018892094
0.038791962 0.041511744 0.009237768 0.032682072 0.019681325 0.012702848 0.021766024 -0.015350266
0.030477084 0.018711377 -3.714645e-05 0.02695886 0.031496234 -0.019260231 0.028100703 0.016733002
0.019274564 0.0007757974 0.012808855 0.022554886 0.013885956 0.027609209 0.027175872 0.029665416
0.008964533 0.02088592 0.025699787 -0.0031376672 0.028705578 0.01775457 0.017496778 0.04002356
-0.0050377655 0.021964734 -0.007862798 0.02419967 -0.0069541866 -0.009109782 0.02434414 0.009627477
-0.015358048 -0.004982024 -0.009447882 -0.008423219 0.01535553 -0.009260964 -0.0031721918 0.009845678
-0.016697565 0.035057336 0.027145054 0.009528567 0.005233374 -0.024048783 -0.0153546445 0.030428436
-0.0013066442 0.0057324027 0.021924712 0.014719377 -0.0023135713 -0.0046437196 0.0114900125 0.008867532
00000000: f2d8 e5bc 771c 6cbd e8fc a9bc 8bfd 6ebd
00000010: 1877 34bd 0fcf 98bd 9a30 5abc e9b9 85bc
00000020: 6b46 0abd b5ce 28bd 32ac 00bd 5777 60bd
00000030: 7b51 a2bd 09ac 45bd bb2f 08bd 034d 63bd
00000040: d351 7bbd 54e1 74bd 1b3a 81bd 680b d5bc
00000050: 40e6 9bbd 2fba 8fbd 8965 5abd a478 4bbd
00000060: 3117 2abd 6abc 3abd 67a7 fabc bcca bdbc
00000070: 83e1 92bc 6b67 3cbd 9af6 a8bc 25a9 a9bc
00000080: 7eb3 9ebd 84bd 5fbd af0f 84bd a238 5fbd
00000090: 848a 90bd 1eb5 64bd f817 91bd 3e8f 06bd
000000a0: 8141 7abd 085d 97bd ba85 86bd 73cb 8fbd
000000b0: 79c3 b9bc 3cb7 37bd cb5d 45bd 624f 2fbd
000000c0: 720a 11bd 25bc 6dbd b201 a5bd 1045 9abd
000000d0: 1be5 47bd 7765 91bd 0c35 b4bc 8369 28bd
000000e0: a281 22bd 918a 01bd 186d 68bd 9c4a 7dbc
000000f0: bda6 65bc 9a4e 3dbd 704e 90bc aa8a 88bd
00000100: 28a4 85bd b223 60bd af90 c5bc 8e2d 2dbd
00000110: bc81 50bd 3738 6cbd aa10 c9bc f7b3 81bd
00000120: 861e 07bd 2df9 55bd 295f 7bbd ebd3 56bd
00000130: 29a3 91bd 975d 5bbd 91bd 4abd 6923 c8bc
00000140: 6c6c c7bc 27c2 9dbd da33 1abd 0741 6bbd
00000150: 5fb0 7dbc e3bb 3ebd 53d3 5cbd 4798 05bd
00000160: 016c a3bd a1c8 27bd 79f8 76bd bdb4 7ebd
00000170: 047f 5ebd a6fb 93bc d01d 89bd 7993 3fbd
00000180: 54e3 67bd 1f1f 6bbc 92af 31bd 26d7 babc
00000190: 90c9 5fbd 8006 87bd 5595 25bd 1dea 6cbd
000001a0: 8ea2 84bd d629 adba a79e 47bc 01c3 b53c
000001b0: 4a26 9cbc b32f eabb 775e 7cbb 1eff 863c
000001c0: aaae 54bb e7b4 0f3c 6aa5 bbbc 5a5d a83c
000001d0: c210 7f3c 212c 7cbc a635 fc3b 7556 adba
000001e0: 5c60 9f3b c3d0 293c babb 8cbc 2951 7d3b
000001f0: f72f c23c 1637 333d 84a8 063d ad5f 143d
00000200: 9158 523d d338 083d c803 373d 247c 063d
00000210: 1146 433d b134 febb 91e6 903c 8999 3b3d
00000220: 7c14 473d 67c7 0c3d b001 483d a8c9 1e3d
00000230: 88ba f03c 81e7 973c 2bde 6c3c 4a3d 443d
00000240: b4a3 c73c ae1e 1a3d d18d eb3c 076c ea3c
00000250: c196 313d 56c0 543d fc34 533c 9bbd 983c
00000260: da3f 753d 695f e23c 47c6 b13c a864 543d
00000270: fa67 e53c 576b 233d e266 603d d2fa cd3c
00000280: 5784 143d 6817 063c 9cdd 723c 4609 fd3c
00000290: 03c2 363d e48b e23c 2809 e23c 9c18 313d
000002a0: 9506 123c 867c 343c 9fe6 09bc fcb0 943c
000002b0: b210 e93c 284c 193d 0863 0b3d e8ed 373b
000002c0: ffd5 043a 9d83 f53c 9f14 7d3c 53b2 143d
000002d0: 52aa 0e3d 1290 933b 9f90 583c 8c12 203d
000002e0: c248 443d 3201 953a b785 9e3c fcf8 543d
000002f0: 3aab 173d 356e 323c c1d9 5c3c 98c3 9a3c
00000300: 52e4 1e3d 3808 2a3d 025a 173c a3dd 053d
00000310: bb3a a13c 9b1f 503c a94e b23c af7f 7bbc
00000320: 14ab f93c 9a48 993c b2cd 1bb8 d4d8 dc3c
00000330: 3202 013d a2c7 9dbc 7233 e63c a613 893c
00000340: b1e5 9d3c e25e 4b3a 3bdc 513c 06c5 b83c
00000350: ec81 633c b52c e23c ef9f de3c e304 f33c
00000360: fadf 123c f318 ab3c 5c88 d23c 52a1 4dbb
00000370: f627 eb3c 0872 913c 6755 8f3c bfef 233d
00000380: d713 a5bb 63ef b33c f7d2 00bc 633e c63c
00000390: f2df e3bb 3241 15bc 5d6d c73c 91bc 1d3c
000003a0: 52a0 7bbc 3f40 a3bb 4acb 1abc 8b01 0abc
000003b0: c395 7b3c 4cbb 17bc 8ce4 4fbb c44f 213c
000003c0: 55c9 88bc 4898 0f3d 4e5f de3c b51d 1c3c
000003d0: b97c ab3b f401 c5bc 0c92 7bbc 0e45 f93c
000003e0: b443 abba e1d6 bb3b 749b b33c 8b29 713c
000003f0: 499f 17bb 582a 98bb 9b40 3c3c 2049 113c
