checkpoints/SeismicEventPredictor/model_epoch_10.pth (torch, 177364 bytes, 7 tensors)

encoder.0.weight f4 [16, 1, 129, 7]
0	0xbe277374	-0.16352636
1	0xbe25328e	-0.16132566
2	0xbe17709d	-0.14789052
3	0xbdfe1387	-0.12406068
4	0xbe361af4	-0.1778372
5	0xbdf6c067	-0.120484166
6	0xbe2f9141	-0.17145254
7	0xbe37633a	-0.17908946
8	0xbde7f001	-0.11325074
9	0xbe11b57e	-0.1422939
10	0xbe2ba0a4	-0.16760498
11	0xbe0a4c4c	-0.13505667
12	0xbe1ca461	-0.1529708
13	0xbe2f6dc9	-0.17131723
14	0xbe12a3ab	-0.14320247
15	0xbdecc9a7	-0.115619
16	0xbe10828d	-0.14112301
17	0xbe230c9b	-0.15922777
18	0xbe19aa7c	-0.15006441
19	0xbdf1948b	-0.117959104
20	0xbe2afcc0	-0.16697979
21	0xbe28fec9	-0.16503443
22	0xbe309b91	-0.17246844
23	0xbe21e366	-0.15809402
24	0xbe14bb5d	-0.14524598
25	0xbe2470cf	-0.16058658
26	0xbe19f2e4	-0.15034062
27	0xbe2f8c16	-0.17143282
28	0xbe277e65	-0.1635681
29	0xbe37bb42	-0.17942527
30	0xbdfaa180	-0.12237835
31	0xbe096319	-0.13416709
32	0xbdebf484	-0.11521247
33	0xbdf3970c	-0.11894044
34	0xbe16b40b	-0.14717118
35	0xbded8b77	-0.115988664
36	0xbe29dee6	-0.16588935
37	0xbe1921eb	-0.14954345
38	0xbe042a58	-0.12906778
39	0xbdfd3919	-0.12364406
40	0xbe2c5341	-0.16828634
41	0xbde7e45b	-0.11322852
42	0xbe08a09a	-0.13342515
43	0xbe03c39d	-0.1286759
44	0xbdeaf3a9	-0.11472256
45	0xbe235859	-0.1595167
46	0xbdf5f263	-0.12009122
47	0xbe222b40	-0.15836811
48	0xbdf51bfa	-0.11968227
49	0xbdf83a37	-0.121204786
50	0xbe3222c9	-0.17396082
51	0xbe19a109	-0.15002836
52	0xbe109989	-0.14121069
53	0xbe0d502b	-0.13800113
54	0xbe22d705	-0.15902336
55	0xbe15dc13	-0.14634733
56	0xbe304bad	-0.17216368
57	0xbe1d909a	-0.15387192
58	0xbe2422a4	-0.1602884
59	0xbe177e8a	-0.14794365
60	0xbe05bf16	-0.13061175
61	0xbe088fd9	-0.13336124
62	0xbe2330af	-0.1593654
63	0xbe174246	-0.14771375
64	0xbe2a9433	-0.16658096
65	0xbe19d157	-0.15021263
66	0xbe2b6bd6	-0.16740355
67	0xbdefed1d	-0.11715148
68	0xbdfd3437	-0.12363475
69	0xbe262959	-0.1622671
70	0xbe2854d5	-0.16438611
71	0xbe2a6997	-0.16641842
72	0xbe02ff00	-0.12792587
73	0xbe1f9ecf	-0.15587924
74	0xbe2aab41	-0.1666689
75	0xbe0cfd73	-0.13768558
76	0xbe0e20d4	-0.1387971
77	0xbe2fa629	-0.17153229
78	0xbe29d7f8	-0.16586292
79	0xbde83578	-0.11338323
80	0xbe286ffc	-0.16448969
81	0xbe1cb4fd	-0.15303417
82	0xbdec54ab	-0.11539587
83	0xbe07f32f	-0.13276361
84	0xbe26581b	-0.16244547
85	0xbe289d2a	-0.16466203
86	0xbe01a3e0	-0.1266017
87	0xbe2e0804	-0.16995245
88	0xbe2df4ea	-0.16987959
89	0xbe208656	-0.15676245
90	0xbe373fd7	-0.17895447
91	0xbe32d5ba	-0.17464343
92	0xbe0a6141	-0.13513662
93	0xbe0a0423	-0.1347814
94	0xbe18c172	-0.14917544
95	0xbe2ee9d4	-0.17081386
96	0xbdfd2ca8	-0.12362033
97	0xbdfe95be	-0.12430905
98	0xbdebf8b5	-0.115220465
99	0xbe0e46d7	-0.13894211
100	0xbe2a5b79	-0.16636457
101	0xbe1a8f9c	-0.15093845
102	0xbe029b74	-0.12754613
103	0xbe20bcfc	-0.15697092
104	0xbe1a0d27	-0.1504408
105	0xbe256bce	-0.16154405
106	0xbe10b2ec	-0.14130753
107	0xbe09911a	-0.13434258
108	0xbe05b44b	-0.13057058
109	0xbe324119	-0.17407645
110	0xbe2c6c8e	-0.16838285
111	0xbdeb8181	-0.1149931
112	0xbe214899	-0.1575035
113	0xbdef2ea2	-0.116788164
114	0xbe1d9e1f	-0.1539235
115	0xbe001b96	-0.12510523
116	0xbdc862ef	-0.09784495
117	0xbe2152d1	-0.15754248
118	0xbe0ba092	-0.13635471
119	0xbdd9bd63	-0.10631826
120	0xbdcb8fc8	-0.099395335
121	0xbdb48411	-0.08814252
122	0xbdca262f	-0.09870564
123	0xbe05997d	-0.13046832
124	0xbe191cfe	-0.14952466
125	0xbdff67ff	-0.124710076
126	0xbdc20e73	-0.09475412
127	0xbd9916b7	-0.07475036
128	0xbdabbf92	-0.083861485
129	0xbd6dcaf7	-0.05805489
130	0xbd7357bd	-0.059409846
131	0xbd6ee860	-0.05832708
132	0xbd6d60eb	-0.057953756
133	0xbd12f724	-0.035880223
134	0xbd07d58c	-0.03316264
135	0xbd2284b6	-0.039677344
136	0xbca0322e	-0.019555178
137	0xbcf976a5	-0.030452082
138	0xbd412781	-0.047156814
139	0xbd6c8aa1	-0.057749394
140	0xbc9ead77	-0.019369824
141	0xbcc7a3b8	-0.02437006
142	0xbcbe69d5	-0.023243824
143	0xbcdf688b	-0.02727153
144	0x3cb0e0a0	0.021591485
145	0xbce0b2cf	-0.027429013
146	0xbd458e92	-0.04823167
147	0xbce7c12a	-0.02829035
148	0x3bf83f97	0.00757594
149	0x3ceb0102	0.028687004
150	0x3cb14220	0.021637976
151	0x3bfd0dc3	0.007722588
152	0x3ac81b7d	0.0015266981
153	0xbb61bf76	-0.0034446395
154	0x3cc9279e	0.024555024
155	0x3c142146	0.009041136
156	0x3c91a01d	0.017776543
157	0xbccdb582	-0.025110964
158	0x3cab0304	0.020875461
159	0x39982fb8	0.00029027252
160	0xbd292617	-0.04129609
161	0x3cdb3a48	0.02676119
162	0x3c970a92	0.018437658
163	0x3c342963	0.0109961955
164	0x3ce29cef	0.027662722
165	0x3c7c4082	0.015396239
166	0x3d58a80a	0.05289463
167	0x3ccadc26	0.024763178
168	0x3c9d7547	0.019220961
169	0x3cb527af	0.02211365
170	0x3d4ae46e	0.049534254
171	0x3ce52717	0.027972741
172	0x3caf05a6	0.021364998
173	0xbb86e465	-0.004116582
174	0x3cc8c7b6	0.024509292
175	0x3d9536f4	0.07285872
176	0x3d1c671f	0.03818428
177	0x3d42bac0	0.04754138
178	0x3c759a2c	0.014990371
179	0x3d3fd111	0.04683024
180	0x3d2782ef	0.040896352
181	0x3c9e2dea	0.019309003
182	0xb91f3205	-0.00015182055
183	0xbba9ce34	-0.005182052
184	0x3d0cf67d	0.034414757
185	0x3d11993f	0.035546537
186	0x3c9aaeab	0.018882116
187	0xbd27ace8	-0.04093638
188	0xbc82a689	-0.01594855
189	0x3be72f50	0.0070552006
190	0x3c83e688	0.016101137
191	0x3cc31747	0.02381481
192	0x3bc0b411	0.0058808406
193	0xbc2ce8c5	-0.010553543
194	0x3d158157	0.0365003
195	0xbcb86f64	-0.022514053
196	0x3b8e0223	0.004333751
197	0x3cad5835	0.021160224
198	0x3c28b399	0.010296726
199	0x3cd1a1a8	0.025589779
200	0x3bd605ec	0.0065314677
201	0x3ce94cef	0.028479068
202	0x3bde63b4	0.006786788
203	0x3c043ee1	0.008071632
204	0x3c4c5ef0	0.012473807
205	0x3d6e20ab	0.058136623
206	0x3d5cb04b	0.053879064
207	0x3d3f1721	0.046652917
208	0x3cd1ea94	0.02562455
209	0x3d1b6852	0.037941284
210	0x3c35fe1c	0.011107948
211	0x3d80bd5d	0.06286118
212	0x3c877185	0.016533623
213	0x3cc389ef	0.023869483
214	0x3cac97bc	0.021068446
215	0x3c4fb403	0.0126771955
216	0xbbf0bbe8	-0.007346619
217	0x3d7181fe	0.05896186
218	0x3d0782b7	0.033083644
219	0x3d5106ec	0.05103199
220	0x3c7efd22	0.015563281
221	0x3d17430a	0.036929168
222	0x3b4f8444	0.003166453
223	0x3d67b47b	0.056568604
224	0x3c8cef89	0.017204063
225	0x3cc120ff	0.023575304
226	0x3d00cf12	0.031447478
227	0x3c9947ad	0.018710935
228	0x3d5e27d6	0.05423721
229	0x3cb636bc	0.022242896
230	0x3c8d57b1	0.017253729
231	0x3d11f3b6	0.03563281
232	0x3cba4800	0.02273941
233	0x3c4f04e5	0.012635444
234	0x3d38c23e	0.04510712
235	0x3d405017	0.04695138
236	0x3cf3f8eb	0.02978178
237	0xbc27b1ab	-0.01023523
238	0x3cf77e5d	0.030211622
239	0x3d212143	0.03933836
240	0x3c46db95	0.012137313
241	0x3ad5fd84	0.0016326164
242	0x3d20a7bc	0.039222464
243	0xbc02478d	-0.007951629
244	0x3c3d952d	0.011571211
245	0x3cf3bf00	0.029754162
246	0x3c8de790	0.017322332
247	0x3af38a6e	0.0018580684
248	0x3d150e58	0.036390632
249	0x3ce2d91e	0.02769142
250	0x3c7003b9	0.014649325
251	0x3bf0e1e9	0.0073511493
252	0x3d06ef6e	0.03294318
253	0xbc916cd7	-0.017752094
254	0x3c914183	0.017731434
255	0x3d92525d	0.07144616

encoder.0.bias f4 [16]
0	0x3e45626c	0.19275826
1	0x3e30d8f8	0.17270267
2	0x3e1f85fc	0.15578455
3	0x3e233332	0.15937498
4	0x3e40373a	0.18771067
5	0x3e33f890	0.17575288
6	0x3e35c577	0.17751108
7	0xbe668ef8	-0.22515476
8	0x3e15650a	0.14589325
9	0x3e12986e	0.1431596
10	0x3e188665	0.14895017
11	0x3e2a8808	0.16653454
12	0x3e08f128	0.13373244
13	0x3e30fa53	0.17282991
14	0x3e4ba7c1	0.19888212
15	0x3e0fabd1	0.14030387

encoder.2.weight f4 [32, 16, 3, 3]
0	0x3c9a52c6	0.018838298
1	0xbd2829ee	-0.041055612
2	0xba73df56	-0.0009302994
3	0x3e244ea3	0.16045623
4	0x3de0b833	0.10972633
5	0x3e029018	0.1275028
6	0x3c1b45c0	0.009477079
7	0x3d21d33b	0.039508086
8	0xbc3bfbcb	-0.011473606
9	0x3c4af46b	0.012387375
10	0x3d8d083e	0.06886338
11	0xbc9ef4b0	-0.019403785
12	0x3dd115c8	0.102092326
13	0x3d9ea147	0.07745605
14	0x3dafd177	0.08584874
15	0xbd4b2366	-0.049594305
16	0x3c9c1f90	0.019058019
17	0x3c980c96	0.018560689
18	0xbc650dd6	-0.0139803495
19	0xbca61c70	-0.020277232
20	0x3d8dd1d8	0.0692479
21	0x3e41796f	0.1889398
22	0x3e084b23	0.13309912
23	0x3da11127	0.078646
24	0x3d59f523	0.053212296
25	0x3d9092bf	0.070592396
26	0xbb4cbe2b	-0.0031241279
27	0x3d21e633	0.039526176
28	0x3da6b73f	0.0814042
29	0xbd3fd2f3	-0.046832036
30	0x3e1e6a1d	0.15470167
31	0x3e03ea72	0.12882403
32	0x3d6f474f	0.058417615
33	0xbd013f38	-0.03155443
34	0x3d327e98	0.04357776
35	0x3ceef060	0.029167354
36	0xbda381b6	-0.07983725
37	0x3d3220cb	0.043488305
38	0x3d91f426	0.07126646
39	0x3e14bdd2	0.14525536
40	0x3e2bdc48	0.1678325
41	0x3e106fb8	0.14105117
42	0xbc41baab	-0.01182429
43	0x3c7d0aab	0.015444438
44	0x3d230b93	0.03980596
45	0xbd1c817b	-0.03820942
46	0xbda842ae	-0.08215843
47	0x3b7069ab	0.0036684077
48	0x3dc7e711	0.09760869
49	0x3e148f41	0.14507772
50	0x3e59cdc0	0.21269894
51	0xbd9dd7f3	-0.07707205
52	0xbcf8ca60	-0.030369937
53	0x3d87bc5c	0.066277236
54	0xbd893ab7	-0.06700652
55	0x3da3406c	0.07971272
56	0xbd9ac870	-0.07557762
57	0x3dae154e	0.08500157
58	0x3daece10	0.08535397
59	0x3e46df33	0.19421081
60	0x3d20bbde	0.039241664
61	0x3cbe4260	0.02322501
62	0xbd1ccafb	-0.038279515
63	0xbd0e7b40	-0.03478551
64	0x3c8dfd50	0.017332703
65	0x3da00950	0.07814276
66	0xbea36ae5	-0.31917492
67	0xbea45f1d	-0.32103816
68	0xbedb2cff	-0.42807767
69	0x3b61f9ab	0.003448109
70	0xbd673846	-0.05645015
71	0xbda9d7a0	-0.0829308
72	0x396e3000	0.0002271533
73	0xbd6b1643	-0.057394277
74	0xbb4afb80	-0.003097266
75	0x3e60ce24	0.21953636
76	0x3d948587	0.07252031
77	0x3db61a28	0.08891708
78	0x3d8542fb	0.06506916
79	0xbd30f026	-0.043197773
80	0xbca6c4e6	-0.02035756
81	0x3d50801b	0.05090342
82	0xbd791083	-0.060806762
83	0x3d267e8e	0.040648036
84	0x3e08b189	0.13348974
85	0x3e25d7db	0.16195624
86	0x3e20adda	0.15691319
87	0xbd63cd53	-0.055615734
88	0x3cb8429b	0.022492697
89	0xbcaab726	-0.020839285
90	0xbcf35a36	-0.029706102
91	0xbd9d76d2	-0.07688679
92	0x39e76c00	0.0004414022
93	0x3d381681	0.044943336
94	0x3dfcf11c	0.123506755
95	0x3e551b31	0.20811154
96	0xbc9a78ab	-0.018856367
97	0xbc79282b	-0.015207331
98	0x3d9edf82	0.077574745
99	0x3d951aa3	0.07280471
100	0xbc940606	-0.018069278
101	0xbd995b9c	-0.07488176
102	0x3e306b6c	0.17228478
103	0x3dfe367b	0.12412735
104	0x3d63572b	0.05550305
105	0x3d9e3354	0.07724634
106	0x3cf647bb	0.0300635
107	0x3d879fb6	0.06622259
108	0x3da18514	0.07886711
109	0xbce0aa80	-0.02742505
110	0x3cb595a6	0.022166084
111	0x3dc48a24	0.09596661
112	0x3daff6cf	0.08591997
113	0x3dfcb2e0	0.12338805
114	0x3d6dea03	0.0580845
115	0x3cf5ed96	0.030020516
116	0xbc49fa0b	-0.012327681
117	0xbc46756b	-0.012112956
118	0x3d985ae4	0.07439211
119	0x3d867826	0.06565885
120	0x3ddabd91	0.10680688
121	0x3e36b653	0.17842989
122	0x3d8dab65	0.069174565
123	0x3c5279f6	0.012846461
124	0x3d07b418	0.033130735
125	0xbc0c01a0	-0.008545309
126	0xbbc8a1d6	-0.006122808
127	0x3c90a220	0.017655432
128	0x3cd0b0a0	0.025474846
129	0x3da76708	0.081739485
130	0x3e33bc6d	0.17552347
131	0x3e5e4720	0.2170682
132	0xbd92fc24	-0.07176998
133	0xbcf44770	-0.02981922
134	0x3d2fe5a6	0.04294362
135	0x3d9a83fa	0.07544704
136	0xbd9cc4cb	-0.07654723
137	0x3d9d5a00	0.07683182
138	0x3e3ef2de	0.18647334
139	0x3df83e84	0.12121299
140	0x3db8fbce	0.09032403
141	0x3d237a80	0.039911747
142	0xbc480d76	-0.012210241
143	0x3cbb79e0	0.022885263
144	0x3d0eb31b	0.034838777
145	0x3d8407f2	0.06446828
146	0x3bfe346b	0.0077577136
147	0x3e0139cf	0.12619708
148	0x3e24e00f	0.16101097
149	0x3d9c822a	0.07642014
150	0xbd58cbe0	-0.052928805
151	0x3bf8dcab	0.007594665
152	0x3d35dc66	0.04439964
153	0xbcb067ab	-0.021533808
154	0x3d9ce1e2	0.07660271
155	0x3da0de30	0.07854879
156	0x3df59cfe	0.119928345
157	0x3e4e604e	0.20153925
158	0x3df57cb7	0.11986678
159	0x3d8d53e0	0.069007635
160	0x3d8da51b	0.06916257
161	0xbd992faf	-0.07479798
162	0xbda8bdd0	-0.08239329
163	0xbd8b8fe4	-0.06814554
164	0xbcf7f7cb	-0.030269524
165	0x3e517325	0.2045408
166	0x3dfb9f99	0.122863
167	0x3e2f565b	0.17122786
168	0xbbeb9740	-0.0071896613
169	0xbc03c08b	-0.008041511
170	0x3c4dd9ab	0.012564103
171	0xbd7cdd8b	-0.061734717
172	0xbd89d983	-0.0673094
173	0x3d84aa80	0.06477833
174	0x3e484878	0.19558895
175	0x3da5d8cd	0.08097992
176	0x3e082c70	0.13298202
177	0xbbe136ab	-0.006872972
178	0x3d2b85d0	0.04187566
179	0xbd69ca83	-0.057077896
180	0x3d9bf8ff	0.076158516
181	0x3d030fe6	0.031997584
182	0xbd443816	-0.04790505
183	0x3e279503	0.16365437
184	0x3e5ac7ac	0.21365231
185	0x3e30fdb2	0.17284277
186	0x3d3a681b	0.04550944
187	0x3c7b0dab	0.015323083
188	0x3d405276	0.04695364
189	0xbda6e80a	-0.08149727
190	0x3ca28a46	0.019841325
191	0x3d5b3d80	0.053525448
192	0x3e59c448	0.21266282
193	0x3e2f03a6	0.17091236
194	0x3e1ac661	0.15114738
195	0x3c1ecad6	0.009691915
196	0xbd8b8264	-0.068119794
197	0xbd53fbbe	-0.051753752
198	0x3d8c928c	0.06863889
199	0x3d6bfe20	0.0576154
200	0xbd86d408	-0.065834105
201	0x3e032212	0.12805966
202	0x3d982598	0.074290454
203	0x3e5a26d2	0.21303871
204	0xbd9a59c3	-0.07536652
205	0xbd172c3e	-0.036907427
206	0xbd48819e	-0.048951738
207	0xbd2afcc0	-0.041744947
208	0xbd1302fb	-0.035891514
209	0xbd424d2e	-0.047436886
210	0xbd9c61eb	-0.07635864
211	0xbd66e06d	-0.056366373
212	0x3d2cdbc6	0.04220178
213	0xbc9d71d6	-0.01921932
214	0x3da89874	0.08232203
215	0xbd2dbdf3	-0.042417478
216	0x3d39f946	0.04540374
217	0x3d79f313	0.06102283
218	0xbd8c303e	-0.06845139
219	0x3d9d8935	0.07692186
220	0x3d612b37	0.054972854
221	0x3e116749	0.14199556
222	0xbd1a8ba3	-0.037730824
223	0xbda9a62c	-0.08283648
224	0x3d202666	0.03909912
225	0x3d4adefb	0.049529057
226	0x3c80e730	0.015735239
227	0x3cbd4ee0	0.0231089
228	0x3de37f77	0.11108296
229	0x3dbb1aff	0.091360085
230	0x3dbc913e	0.0920739
231	0xbd8e80ac	-0.06958136
232	0xbc59c260	-0.0132909715
233	0x3d8a4c1c	0.06752798
234	0x3c697c8b	0.014250885
235	0x3ac56aab	0.0015061697
236	0x3d0a2d66	0.0337347
237	0x3e05a90f	0.13052772
238	0x3d7f662e	0.062353306
239	0x3d8e8b14	0.06960121
240	0xbd944e2a	-0.07241471
241	0xbd647173	-0.055772256
242	0xbd83c62f	-0.06434285
243	0xbd93961e	-0.07206367
244	0x3d1d95c8	0.03847292
245	0x3cb10b8b	0.02161195
246	0x3dcb13bf	0.09915876
247	0x3d8e08b9	0.069352575
248	0x3dfa248c	0.12214002
249	0xbd8d8e33	-0.06911888
250	0xbd525490	-0.051350176
251	0x3d520803	0.05127717
252	0xbd5dbc5b	-0.054134708
253	0xbd5f28d6	-0.054482304
254	0x3d248388	0.0401645
255	0x3e43f3e6	0.19136009

encoder.2.bias f4 [32]
0	0x3dba91a1	0.09109808
1	0x3dfa907c	0.122345895
2	0x3e44c86e	0.19217083
3	0x3e30a31e	0.17249724
4	0x3db1e91c	0.0868704
5	0x3e383370	0.17988372
6	0x3dd7418a	0.105105475
7	0x3e3d9d25	0.18516977
8	0x3def0627	0.11671095
9	0x3da3c6c6	0.079968974
10	0x3dbe372d	0.09287868
11	0x3e240aa7	0.16019689
12	0x3e3869c2	0.18009093
13	0x3dcd8106	0.10034375
14	0x3db1d90f	0.08683979
15	0x3d8e1d8f	0.069392316
16	0x3e3562eb	0.17713515
17	0x3d71f309	0.059069667
18	0x3e16047b	0.14650147
19	0x3e52cb3e	0.20585343
20	0x3db55702	0.08854486
21	0x3dcde82e	0.100540504
22	0x3da5a613	0.08088317
23	0x3da0661f	0.07831978
24	0x3e59e549	0.21278872
25	0x3e0b1073	0.13580494
26	0x3e58f747	0.21188079
27	0x3db2f0f1	0.08737362
28	0x3e22bf56	0.15893301
29	0x3e0f6191	0.14002062
30	0x3db81527	0.089884095
31	0x3dc39e0f	0.09551632

encoder.4.weight f4 [64, 32, 3, 3]
0	0x3d0ce6ac	0.034399673
1	0x3d548687	0.051886108
2	0xba247a53	-0.0006274331
3	0x3d5e8d66	0.054334067
4	0x3e3e78c4	0.18600756
5	0x3e212feb	0.15740936
6	0xb933b915	-0.00017139719
7	0xbaa2f802	-0.0012433531
8	0x3d44bcd6	0.04803165
9	0xbc56d89f	-0.01311317
10	0x3cb9a082	0.022659544
11	0x3c103e88	0.008803971
12	0x3e2ba9e5	0.16764028
13	0x3e285d32	0.16441801
14	0x3e257382	0.16157344
15	0x3cb0e1f4	0.021592118
16	0xbbed7afb	-0.0072473264
17	0x3d268ec8	0.04066351
18	0x3c32d519	0.010915064
19	0x3ab6a4bb	0.0013934592
20	0x3d526a1b	0.05137072
21	0x3dbe35d4	0.09287611
22	0x3dd96bbd	0.106162526
23	0x3e17f57e	0.14839742
24	0xbb198267	-0.0023423673
25	0xba82b6e3	-0.0009972717
26	0x3b382748	0.0028099585
27	0xbcd6b1dd	-0.026207859
28	0xbd1bfc1a	-0.03808222
29	0x3c93bb10	0.018033534
30	0x3dfa85b9	0.12232537
31	0x3dfd5255	0.12369219
32	0x3dfc5d80	0.12322521
33	0xbcd5ceed	-0.026099646
34	0xbbc127be	-0.00589463
35	0x3d435ac1	0.04769397
36	0xbcd96864	-0.026539035
37	0xbbc0284d	-0.005864179
38	0xbcbe8487	-0.023256553
39	0x3e350051	0.17675902
40	0x3e2c0945	0.16800411
41	0x3ddae41c	0.1068804
42	0xbc574bad	-0.013140601
43	0xbcac1f05	-0.021010885
44	0xbd29bb52	-0.04143841
45	0xbd414153	-0.04718144
46	0x3c43506f	0.011921032
47	0xbd17b57d	-0.037038315
48	0x3ddd1e4c	0.10796794
49	0x3e32515c	0.17413849
50	0x3de3d1b2	0.111239806
51	0x3a748739	0.0009328011
52	0xbd1e37e5	-0.038627524
53	0x3d0e5dab	0.034757297
54	0x3a6f98cd	0.00091398956
55	0xba95fd14	-0.0011443221
56	0xbd1e3880	-0.0386281
57	0x3da11f30	0.07867277
58	0x3e302f1e	0.17205474
59	0x3deb4532	0.11487807
60	0x3d1dd809	0.038536105
61	0xbcddbad2	-0.027066622
62	0x3ba45beb	0.0050158403
63	0xbd4e345f	-0.050342914
64	0xbd4f5dda	-0.050626613
65	0x3bb5e639	0.0055511263
66	0x3e11a4d6	0.14223036
67	0x3e056ab2	0.13028982
68	0x3d9f1892	0.07768358
69	0x3bc5337a	0.0060180994
70	0x3b97e4ce	0.00463543
71	0xbcd86eb9	-0.026419984
72	0xbccf3b7f	-0.025296925
73	0x3d46012c	0.04834096
74	0x3c7f6ea5	0.015590345
75	0x3d8e7c1b	0.06957265
76	0x3e2d81fa	0.16944113
77	0x3de42786	0.11140351
78	0xbd3f160c	-0.046651885
79	0x3d0d79d0	0.034539998
80	0xbd65daff	-0.056117054
81	0x3d4fa7e8	0.050697237
82	0x3d2691ec	0.040666506
83	0x3cef7632	0.029231165
84	0x3e081a70	0.13291335
85	0x3e05cd5c	0.1306662
86	0x3da837b5	0.0821375
87	0x3d0c0017	0.034179773
88	0xbd6d1a4a	-0.0578864
89	0x3d0e63d5	0.034763176
90	0xbd3d7325	-0.04625239
91	0xba27b9e2	-0.0006398243
92	0x3d2b9d26	0.041897915
93	0x3e19900a	0.14996353
94	0x3e112cef	0.14177297
95	0x3df338bc	0.118760556
96	0x3aa093a7	0.0012251035
97	0x3d22697f	0.03965139
98	0xbc5f77a6	-0.013639366
99	0xbc9af798	-0.01891689
100	0xbcb0d609	-0.021586435
101	0xbd229c37	-0.03969976
102	0x3e43c6ec	0.19118851
103	0x3e3e8fb7	0.1860951
104	0x3deed364	0.11661413
105	0xbc8081b0	-0.01568684
106	0x3cfed075	0.03110526
107	0x3c5e7424	0.013577495
108	0xbcb2c26f	-0.021821229
109	0xbca073bf	-0.019586442
110	0xb9c14b55	-0.00036867955
111	0x3dee15c6	0.11625247
112	0x3e3679dd	0.17819925
113	0x3e0e431e	0.1389279
114	0xbcfae911	-0.030628713
115	0xbd5e47b8	-0.054267615
116	0xbc847d5d	-0.01617306
117	0xbd6d41c3	-0.057924043
118	0xbd300d25	-0.042981286
119	0xbb0add71	-0.0021189118
120	0x3d899720	0.06718278
121	0x3d8b83f0	0.068122745
122	0x3da479d5	0.0803105
123	0x3cb3dc06	0.021955501
124	0x3d05df62	0.032683738
125	0xbbc6004d	-0.0060425163
126	0xbc30c0b5	-0.010788132
127	0x3d559d1d	0.052151788
128	0xbd41ee7e	-0.047346584
129	0x3d9a335c	0.07529327
130	0x3e17c903	0.14822774
131	0x3db771e4	0.0895727
132	0xbc88d21b	-0.016701749
133	0x3d69cc82	0.0570798
134	0xbcfdd305	-0.030984411
135	0x3d486513	0.048924517
136	0x3a035fe2	0.0005011541
137	0xbcff89a1	-0.031193556
138	0x3e22577a	0.15853682
139	0x3db2b819	0.0872652
140	0x3dd2f8f8	0.10301393
141	0x3d6fe7f0	0.058570802
142	0xbc9962e1	-0.018723907
143	0x3c99f109	0.018791692
144	0x3d181288	0.037127048
145	0xbb2a1bff	-0.0025956628
146	0x3bc9d03a	0.0061588557
147	0x3e085d8d	0.13316937
148	0x3e062051	0.13098265
149	0x3dc58d3d	0.0964608
150	0x3d209217	0.039201822
151	0xbd3d7964	-0.046258345
152	0xbd36ac5a	-0.04459796
153	0xbce1b917	-0.027554078
154	0x3cf7cc68	0.030248836
155	0xbca0beb6	-0.019622188
156	0x3e183cad	0.14866896
157	0x3dce9b99	0.10088272
158	0x3e0a04c4	0.1347838
159	0xbc65875e	-0.014009325
160	0x3c7e0bad	0.015505713
161	0xbd2d44fe	-0.042302124
162	0xbbbe620b	-0.0058100275
163	0x3c896b50	0.016774803
164	0x3b3f4b63	0.002918922
165	0x3e18340d	0.14863606
166	0x3e113818	0.14181554
167	0x3de1b1b1	0.1102022
168	0xbd28cbc6	-0.04120996
169	0x3d097ae3	0.03356446
170	0x3cc62d96	0.024191659
171	0xbb9e4145	-0.004829558
172	0x3cf36faa	0.029716332
173	0x3d323770	0.0435099
174	0x3e083010	0.13299584
175	0x3e21fc1e	0.15818831
176	0x3de7f6d0	0.113263726
177	0xbccb2948	-0.024799958
178	0xbcbaf807	-0.022823347
179	0x3d10d567	0.035359766
180	0x3c1d3a9c	0.009596493
181	0x3d4c4432	0.049869724
182	0x3d53b610	0.0516873
183	0x3e0deb39	0.13859262
184	0x3e498807	0.19680797
185	0x3db895d1	0.0901295
186	0xbd3f9e35	-0.046781737
187	0x3ccfc2d9	0.025361465
188	0x3d6cbeb2	0.05779905
189	0x3d1861fc	0.03720282
190	0xbbb86c39	-0.0056281355
191	0x3c46c3ca	0.012131641
192	0x3dc06599	0.09394378
193	0x3e45bd9d	0.19310613
194	0x3d9cc088	0.0765391
195	0x3d41d34c	0.04732065
196	0x3c4bef05	0.012447123
197	0x3cde7402	0.027154926
198	0xbd5fc930	-0.054635227
199	0x3d04701b	0.032333475
200	0xbae89136	-0.0017743472
201	0x3de0d5a7	0.10978251
202	0x3dd48b60	0.10378146
203	0x3de64b87	0.112448744
204	0x3ca3bc7b	0.019987335
205	0x3d4511f6	0.048112832
206	0x3d54cad4	0.051951244
207	0xbd445b42	-0.047938593
208	0xbc067ea6	-0.008208906
209	0xbbcc0b46	-0.00622693
210	0x3d5c8115	0.05383404
211	0x3e3410ef	0.17584585
212	0x3d1c3929	0.03814045
213	0x3c1750aa	0.00923554
214	0xbd3215ff	-0.04347801
215	0x3cbbd295	0.022927562
216	0xbcd4b02a	-0.025962908
217	0xbcfb7ca1	-0.030699076
218	0x3bc75f16	0.006084333
219	0x3dbcaedf	0.092130415
220	0x3df00adc	0.11720821
221	0x3dc9593b	0.098314725
222	0xbd0d4dc4	-0.03449799
223	0xbd0e2f0b	-0.034712832
224	0xbd19f9e3	-0.037591826
225	0x3b8d389a	0.004309726
226	0x3d03c424	0.032169476
227	0xbd0b00c8	-0.033936292
228	0x3d9e0387	0.077155165
229	0x3e141c00	0.14463806
230	0x3da7291c	0.08162138
231	0x3d431880	0.047630787
232	0xbd3fe2cc	-0.04684715
233	0x3c4ea484	0.012612466
234	0x3c9f1541	0.019419314
235	0x3cd95df6	0.026534062
236	0x3d2889b4	0.04114695
237	0x3d9b18fc	0.07573125
238	0x3e27be3f	0.16381167
239	0x3df2ed8c	0.11861715
240	0xbd0386c6	-0.03211095
241	0xbc2084b0	-0.00979726
242	0xbad02cc1	-0.0015882478
243	0xbc9f7596	-0.019465249
244	0x3c8f9794	0.017528333
245	0x3cdfc52a	0.027315695
246	0x3e03089b	0.12796251
247	0x3e33908a	0.17535606
248	0x3da4d7d2	0.08048977
249	0xba2e73ec	-0.0006654847
250	0xbc122a88	-0.008921273
251	0x3c22a072	0.009925948
252	0xbd042264	-0.03225936
253	0x3cac60b1	0.0210422
254	0xbd3caad9	-0.04606137
255	0x3d4d1968	0.050073057

encoder.4.bias f4 [64]
0	0x3e276599	0.1634735
1	0x3e2c4592	0.16823414
2	0x3df9247b	0.12165161
3	0x3e2b8087	0.16748248
4	0x3e3fb19a	0.18720093
5	0x3d8b3e42	0.06798984
6	0x3dbec5bc	0.093150586
7	0x3cc4c4e9	0.024019675
8	0x3dfbafc2	0.122893825
9	0x3df66409	0.12030799
10	0x3e1b542a	0.15168825
11	0x3d51135e	0.05104386
12	0x3daff479	0.08591551
13	0x3d79a6e0	0.06095016
14	0x3e0ebd6e	0.13939449
15	0x3e399d13	0.18126325
16	0x3e1c3605	0.15254982
17	0x3c414e76	0.011798492
18	0xbcce2112	-0.025162254
19	0x3e251009	0.16119398
20	0x3d3ba839	0.045814727
21	0x3e3ec1df	0.18628643
22	0x3e124e69	0.14287724
23	0x3e2ab987	0.16672336
24	0x3a88841e	0.001041535
25	0x3e29b60a	0.16573349
26	0x3e428879	0.18997373
27	0xbc974d43	-0.018469458
28	0x3df5ce68	0.120022595
29	0x3e2a5f77	0.1663798
30	0x3d8fc812	0.07020582
31	0x3e664768	0.22488177
32	0x3e0aa848	0.13540757
33	0x3d8c0de3	0.06838586
34	0x3c6fd6d0	0.014638618
35	0x3e05a2c0	0.13050365
36	0xbda95783	-0.08268645
37	0x3df2a010	0.11846936
38	0x3e20bddd	0.15697427
39	0x3df0d6f2	0.117597476
40	0x3d48af7f	0.04899549
41	0x3d17695c	0.036965713
42	0x3e25678e	0.16152784
43	0x3c9587a6	0.018253159
44	0x3e2d05e5	0.1689678
45	0x3d8ced71	0.06881226
46	0x3e027dca	0.12743297
47	0x3e28f29e	0.16498801
48	0xbbeacbf2	-0.0071654255
49	0x3dbc85b2	0.09205188
50	0x3dc771a8	0.09738475
51	0x3dd67845	0.10472158
52	0xbb2f59d7	-0.002675643
53	0x3e351a2c	0.17685765
54	0x3e21d44a	0.15803638
55	0x3af4582c	0.0018642
56	0x3e24283c	0.16030973
57	0x3e15166c	0.14559335
58	0xbcfcaad3	-0.030843174
59	0x3e3ec564	0.18629986
60	0x3e2045ed	0.15651675
61	0x3e2ad099	0.16681136
62	0x3e0fee79	0.14055814
63	0x3e43153d	0.1905107

fc.weight f4 [1, 5888]
0	0x3db52b21	0.08846117
1	0x3d91585f	0.070969336
2	0x3d9a091b	0.07521268
3	0x3d999ee9	0.07501013
4	0x3dc149ec	0.094379276
5	0x3dc0c686	0.09412865
6	0x3daa0729	0.08302147
7	0x3dbad966	0.09123497
8	0x3db98156	0.09057872
9	0x3da2535e	0.07926057
10	0x3d98e9c1	0.0746646
11	0x3da40fe8	0.080108464
12	0x3da6a4d9	0.08136911
13	0x3db2e99a	0.08735962
14	0x3dbd70ee	0.09250055
15	0x3dbd4402	0.09241487
16	0x3d920cce	0.071313486
17	0x3dc1dfc3	0.09466507
18	0x3da0fbbe	0.07860516
19	0x3d91beaa	0.071164444
20	0x3d901092	0.070344105
21	0x3db8a58c	0.090159506
22	0x3da5e427	0.08100157
23	0x3d9941aa	0.074832276
24	0x3d993968	0.074816525
25	0x3dabdf65	0.083922185
26	0x3d9cf4a6	0.076638505
27	0x3d8fae5e	0.0701568
28	0x3d961af2	0.07329358
29	0x3dae64ee	0.085153446
30	0x3dbb8e06	0.09157948
31	0x3db39e6c	0.08770451
32	0x3d97e157	0.07416027
33	0x3db11f65	0.08648566
34	0x3dba1cbc	0.09087512
35	0x3da9367e	0.08262347
36	0x3d9e8fa2	0.077422395
37	0x3dba1e80	0.09087849
38	0x3d89c439	0.067268796
39	0x3d42fefc	0.047606453
40	0x3d5f96ca	0.054587163
41	0x3d89f84b	0.06736811
42	0x3d43e0b0	0.0478217
43	0x3d775c85	0.060390968
44	0x3d8a9d68	0.06768304
45	0x3d9f4582	0.077769294
46	0x3d93d4a6	0.07218294
47	0x3dc1fb47	0.094717555
48	0x3dbd67a5	0.09248284
49	0x3d9f561b	0.07780095
50	0x3dace0bb	0.084413014
51	0x3da17e3f	0.07885408
52	0x3d8aa520	0.06769776
53	0x3dbc2698	0.09187049
54	0x3db82677	0.089917116
55	0x3d917a2a	0.07103379
56	0x3da7e08a	0.08197124
57	0x3d930251	0.07178176
58	0x3da14ec2	0.0787635
59	0x3d922259	0.071354575
60	0x3d8b7d03	0.068109535
61	0x3da7faa3	0.08202102
62	0x3da198e9	0.078904934
63	0x3dba20fd	0.09088323
64	0x3da76752	0.08174004
65	0x3d93cd60	0.072169065
66	0x3d9e74dd	0.07737134
67	0x3d8be605	0.06830982
68	0x3da9223d	0.082584836
69	0x3db8e74c	0.090284914
70	0x3dc0dcad	0.094170906
71	0x3d985f4f	0.07440054
72	0x3d9ad3b5	0.07559911
73	0x3da28532	0.07935561
74	0x3d8e3f39	0.069456525
75	0x3d8a4ac8	0.06752545
76	0x3db86c14	0.09004989
77	0x3dae804b	0.08520564
78	0x3d92d64c	0.0716978
79	0x3dac660b	0.08417901
80	0x3d8fd4cf	0.07023012
81	0x3d977306	0.07394986
82	0x3dac0365	0.08399085
83	0x3d9c0ec6	0.07620005
84	0x3dbfe13f	0.09369134
85	0x3d68ed54	0.05686696
86	0x3d6668b9	0.056252215
87	0x3dae6a73	0.08516397
88	0x3db814bb	0.08988329
89	0x3d8df17e	0.069308266
90	0x3db23074	0.08700648
91	0x3d9d5af2	0.07683362
92	0x3da852b0	0.082188964
93	0x3d88cf90	0.066802144
94	0x3dbb0c6d	0.091332294
95	0x3d92eab9	0.07173676
96	0x3da81342	0.08206798
97	0x3dc8710b	0.09787186
98	0x3dafe809	0.08589179
99	0x3dbe0b94	0.09279552
100	0x3da21441	0.079140194
101	0x3d941490	0.072304845
102	0x3d8b6592	0.068064824
103	0x3db44817	0.088028125
104	0x3d94fda5	0.07274941
105	0x3d8ed24b	0.06973704
106	0x3dad13de	0.08451055
107	0x3daede6f	0.085385196
108	0x3da6e500	0.08149147
109	0x3db09089	0.08621318
110	0x3d8b7d5d	0.068110205
111	0x3d9b1c69	0.07573778
112	0x3da103b4	0.078620344
113	0x3da12d15	0.07869927
114	0x3dab287b	0.083573304
115	0x3d94b787	0.072615676
116	0x3dbb03aa	0.09131558
117	0x3db05a2f	0.08610951
118	0x3daae860	0.08345103
119	0x3db09de8	0.08623868
120	0x3d96d889	0.073655196
121	0x3da0a579	0.078440614
122	0x3d99467e	0.074841484
123	0x3d93829c	0.07202646
124	0x3d9874ef	0.07444178
125	0x3dbac461	0.091194876
126	0x3da48b2b	0.08034357
127	0x3dbbb04b	0.091644846
128	0x3da34007	0.079711966
129	0x3db5a67f	0.08869647
130	0x3d80e8b6	0.06294386
131	0x3d682aa1	0.05668128
132	0x3d52d28d	0.051470328
133	0x3d86b368	0.06577188
134	0x3d11650f	0.035496768
135	0x3d5d5306	0.054034255
136	0x3d589add	0.052882064
137	0x3db7c46f	0.089730136
138	0x3d8db4cb	0.06919249
139	0x3db05710	0.08610356
140	0x3d93ad81	0.072108276
141	0x3da8ff4e	0.082518205
142	0x3db20f5a	0.08694334
143	0x3d9a8827	0.075455
144	0x3d96cc41	0.07363177
145	0x3da0e32f	0.07855832
146	0x3db31309	0.08743865
147	0x3d94daef	0.07268321
148	0x3d8e3563	0.069437765
149	0x3d8fd588	0.0702315
150	0x3dae2421	0.08502985
151	0x3d8bb469	0.0682152
152	0x3db52069	0.08844072
153	0x3d97b4e0	0.07407546
154	0x3d96398c	0.07335195
155	0x3d870abe	0.06593846
156	0x3dba9ecc	0.09112319
157	0x3dacb68f	0.08433258
158	0x3d8c6fac	0.06857237
159	0x3da4b2ac	0.080418915
160	0x3db6433a	0.08899541
161	0x3db0fa31	0.0864147
162	0x3db20c3d	0.086937405
163	0x3d8aaa46	0.06770758
164	0x3db18187	0.086672835
165	0x3d9ea381	0.0774603
166	0x3d9a0970	0.07521331
167	0x3da5634a	0.080755785
168	0x3d9e55c6	0.07731204
169	0x3da743e9	0.0816725
170	0x3d95168c	0.07279691
171	0x3d952941	0.07283259
172	0x3d94aa75	0.072590746
173	0x3d9d41ae	0.07678543
174	0x3da6fe0c	0.08153924
175	0x3db5424e	0.08850537
176	0x3db26ed7	0.08712547
177	0x3d8f425e	0.069950804
178	0x3d830eef	0.06399333
179	0x3da65c49	0.08123071
180	0x3d973970	0.07384002
181	0x3d84e646	0.06489234
182	0x3d9fedf6	0.07809059
183	0x3da0ee63	0.07857969
184	0x3da76927	0.08174353
185	0x3d9241ab	0.071414314
186	0x3dacbe7a	0.08434768
187	0x3d9bec54	0.076134354
188	0x3dbf6a1a	0.09346409
189	0x3daadc28	0.08342773
190	0x3db7e95e	0.08980058
191	0x3dbd342b	0.09238466
192	0x3db23293	0.087010525
193	0x3dbc9334	0.09207764
194	0x3d9c4a99	0.07631416
195	0x3db950a4	0.09048584
196	0x3d9abbf5	0.07555381
197	0x3d9ee972	0.0775937
198	0x3d94d76f	0.07267653
199	0x3dbcd036	0.092194006
200	0x3d942140	0.072329044
201	0x3d95b9c0	0.073108196
202	0x3da6608e	0.08123885
203	0x3da6c14f	0.081423394
204	0x3d9acb4e	0.075583085
205	0x3d96ea8c	0.07368955
206	0x3dae96e6	0.08524875
207	0x3da9671e	0.08271621
208	0x3daa7083	0.08322241
209	0x3d99b72a	0.07505639
210	0x3da473e0	0.08029914
211	0x3db2878c	0.0871726
212	0x3d8cce85	0.06875328
213	0x3da707d0	0.08155787
214	0x3d8bd905	0.068285026
215	0x3db502db	0.08838435
216	0x3daa4fe3	0.083160184
217	0x3d893082	0.06698705
218	0x3daa56ae	0.08317314
219	0x3d9d8eb2	0.076932326
220	0x3d8d0dbf	0.068873875
221	0x3db873ec	0.09006485
222	0x3da51ad9	0.080617614
223	0x3d58c316	0.052920423
224	0x3d91f0fd	0.07126043
225	0x3d4338b5	0.047661502
226	0x3d0706bd	0.03296541
227	0x3d5759f5	0.052576024
228	0x3d7b7916	0.061394773
229	0x3d9993d9	0.07498903
230	0x3da2eb27	0.07955008
231	0x3d98d61d	0.07462714
232	0x3d9f1c62	0.077690855
233	0x3d9a7ae3	0.0754297
234	0x3db2e408	0.087349
235	0x3dba4fab	0.09097227
236	0x3da961f0	0.08270633
237	0x3d9281c9	0.07153661
238	0x3d9eb652	0.077496186
239	0x3db74fea	0.08950789
240	0x3d989517	0.07450312
241	0x3dabef7f	0.0839529
242	0x3db851a6	0.08999948
243	0x3dac3556	0.084086105
244	0x3dae46ed	0.08509622
245	0x3da2cb6d	0.07948957
246	0x3d8cd178	0.068758905
247	0x3d957168	0.07297021
248	0x3da0dd53	0.07854714
249	0x3db4cc37	0.088280134
250	0x3da04dcc	0.078273386
251	0x3dbc2873	0.091874026
252	0x3d98b0ea	0.07455619
253	0x3dbbe1d3	0.09173932
254	0x3d90950c	0.070596784
255	0x3d9f8e58	0.07790822
