checkpoints/SeismicEventPredictor/model_epoch_10.pth (torch, 177364 bytes, 7 tensors)

encoder.0.weight f4 [16, 1, 129, 7]
0	0xbe2c25fd	-0.16811366
1	0xbe297d2c	-0.16551656
2	0xbe1c0f66	-0.15240249
3	0xbe0287a9	-0.12747063
4	0xbe3aacfb	-0.1823005
5	0xbe002c0c	-0.12516803
6	0xbe34aeda	-0.17644826
7	0xbe3cfb1c	-0.18455166
8	0xbdf2e4e4	-0.11860064
9	0xbe172c5d	-0.14763017
10	0xbe310612	-0.17287472
11	0xbe0faed2	-0.14031532
12	0xbe2201a1	-0.15820934
13	0xbe34cdf4	-0.1765669
14	0xbe183d53	-0.14867143
15	0xbdf7c442	-0.1209798
16	0xbe15fb99	-0.14646758
17	0xbe287637	-0.16451345
18	0xbe1f0e94	-0.15532905
19	0xbdfc5252	-0.12320389
20	0xbe305d85	-0.17223175
21	0xbe2e9a0a	-0.17050949
22	0xbe361bb4	-0.17784005
23	0xbe275e69	-0.16344608
24	0xbe1a2956	-0.15054831
25	0xbe29d6a9	-0.16585793
26	0xbe1f5390	-0.1555922
27	0xbe34ed14	-0.17668563
28	0xbe2d1a90	-0.16904664
29	0xbe3d3cbf	-0.18480204
30	0xbe02ccaf	-0.12773393
31	0xbe0ed385	-0.13947876
32	0xbdf6c240	-0.12048769
33	0xbdfe5a78	-0.12419599
34	0xbe1c149a	-0.15242234
35	0xbdf8c314	-0.12146583
36	0xbe2f5f98	-0.1712631
37	0xbe1e9cf3	-0.15489559
38	0xbe099a5e	-0.13437793
39	0xbe0402f0	-0.12891746
40	0xbe31b4e8	-0.17354167
41	0xbdf2a2ea	-0.1184748
42	0xbe0e3cd1	-0.13890387
43	0xbe094344	-0.13404566
44	0xbdf5eaa8	-0.12007648
45	0xbe28c7e5	-0.16482504
46	0xbe005f0c	-0.12536258
47	0xbe278d94	-0.16362602
48	0xbdffdac6	-0.124928996
49	0xbe01b7bb	-0.12667744
50	0xbe37a0eb	-0.17932479
51	0xbe1f1dda	-0.15538731
52	0xbe16051a	-0.14650384
53	0xbe12b515	-0.1432689
54	0xbe283ae2	-0.16428712
55	0xbe1b3bcb	-0.15159528
56	0xbe35bd9a	-0.17748109
57	0xbe22eceb	-0.1591069
58	0xbe29891b	-0.16556208
59	0xbe1cc61f	-0.15309952
60	0xbe0b08bd	-0.13577552
61	0xbe0de010	-0.13855004
62	0xbe286f35	-0.16448672
63	0xbe1c7e75	-0.15282615
64	0xbe2fbcb4	-0.17161828
65	0xbe1f2113	-0.1553996
66	0xbe307039	-0.1723031
67	0xbdfa057a	-0.12208076
68	0xbe03d7f7	-0.12875353
69	0xbe2b2db3	-0.16716652
70	0xbe2ce560	-0.16884375
71	0xbe2f09d3	-0.17093591
72	0xbe07b5f7	-0.13253008
73	0xbe23fc05	-0.16014107
74	0xbe2f598a	-0.17124
75	0xbe11f0af	-0.1425197
76	0xbe12ad8f	-0.1432402
77	0xbe32f835	-0.17477496
78	0xbe2dbb61	-0.1696601
79	0xbdf00aa9	-0.11720783
80	0xbe2b8c6c	-0.16752785
81	0xbe20702d	-0.15667792
82	0xbdf4d24d	-0.11954174
83	0xbe0b811f	-0.13623475
84	0xbe27a3c4	-0.16371065
85	0xbe2bc4d4	-0.16774303
86	0xbe0489f0	-0.12943244
87	0xbe2f768c	-0.17135066
88	0xbe30a72f	-0.17251275
89	0xbe242eff	-0.16033553
90	0xbe38c8d0	-0.18045354
91	0xbe301d66	-0.17198715
92	0xbe0a7fa5	-0.13525255
93	0xbe0b4030	-0.13598704
94	0xbe179025	-0.1480108
95	0xbe30caac	-0.17264813
96	0xbe01deb4	-0.12682611
97	0xbdfcdd99	-0.12346954
98	0xbdd50bad	-0.104026176
99	0xbe0ca9b4	-0.13736612
100	0xbe280d42	-0.16411307
101	0xbe177db4	-0.14794046
102	0xbe06124f	-0.13092922
103	0xbe274989	-0.16336645
104	0xbe17e78d	-0.14834423
105	0xbe179ed9	-0.1480669
106	0xbe176475	-0.14784415
107	0xbe14235e	-0.14466617
108	0xbe0a030a	-0.13477722
109	0xbe41ad18	-0.18913686
110	0xbe3f0a81	-0.1865635
111	0xbddf592b	-0.10905679
112	0xbdfbc74e	-0.12293874
113	0xbdc1399f	-0.094348185
114	0xbe3db385	-0.18525513
115	0xbdfb8e3f	-0.12282991
116	0xbdf6f615	-0.12058655
117	0xbe105451	-0.14094664
118	0xbdccaca0	-0.09993863
119	0xbda4a725	-0.08039693
120	0xbdf1d039	-0.118072934
121	0xbd8a5d9a	-0.06756134
122	0xbdd02f06	-0.10165219
123	0xbe0c98a5	-0.13730104
124	0xbe0bcf69	-0.1365334
125	0xbde53585	-0.11191849
126	0xbdbe9aa5	-0.0930684
127	0xbda811b3	-0.08206501
128	0xbdb0a73c	-0.086256474
129	0xbd8b736d	-0.06809125
130	0xbd6deb6a	-0.058085836
131	0xbd70077a	-0.05860088
132	0xbd86d382	-0.06583311
133	0xbce5945b	-0.028024843
134	0xbce13485	-0.027490864
135	0xbce034a8	-0.027368858
136	0xbc99ef7c	-0.018790953
137	0xbcbcc06d	-0.023040975
138	0xbd428757	-0.04749235
139	0xbd4cde89	-0.050016914
140	0x3ac52dd6	0.0015043567
141	0xbc33f7d2	-0.010984378
142	0xbbd50481	-0.006500781
143	0xbc807166	-0.015679073
144	0x3d014c5c	0.031566963
145	0xbc39dc99	-0.0113440985
146	0xbc2c1f6d	-0.010505539
147	0xbadd19df	-0.0016868672
148	0x3cd8e3be	0.026475783
149	0x3d6831a6	0.056687973
150	0x3d2b5a1f	0.041833993
151	0x3d01d663	0.031698596
152	0x3c8aa78a	0.016925592
153	0x3ceb262e	0.028704729
154	0x3ce6a029	0.028152542
155	0x3d186b7a	0.037211873
156	0x3cecad32	0.02889118
157	0xbc157613	-0.009122389
158	0x3d28793c	0.041131243
159	0x3c4aa233	0.012367773
160	0xbbf5d7ca	-0.0075025307
161	0x3d48e28d	0.04904418
162	0x3d3a1aab	0.04543559
163	0x3d129ca2	0.035793908
164	0x3d9bd228	0.076084435
165	0x3d0f7139	0.035020087
166	0x3d6142dd	0.054995406
167	0x3d4673a3	0.048450124
168	0x3cdf153e	0.027231809
169	0x3d3a4fe5	0.04548635
170	0x3d92e0fb	0.07171818
171	0x3d654736	0.055976115
172	0x3d432c11	0.047649447
173	0x3c6e234f	0.014534785
174	0x3d353b9c	0.0442463
175	0x3d98a6f5	0.074537195
176	0x3d555ffd	0.052093495
177	0x3d844116	0.06457727
178	0x3cada719	0.021197842
179	0x3d806479	0.06269164
180	0x3d2930de	0.04130637
181	0x3c969034	0.018379308
182	0x3bc09146	0.005876693
183	0x3ba83391	0.0051331003
184	0x3d25fef5	0.04052635
185	0x3d010ba4	0.031505242
186	0x3ce81c34	0.02833376
187	0xbcfdabc0	-0.030965686
188	0xbbdc8479	-0.006729659
189	0x3cc4c173	0.024018025
190	0x3ca54b7d	0.020177597
191	0x3d141e5e	0.036161773
192	0x3c06b0d9	0.008220875
193	0x3b384b2c	0.0028120978
194	0x3d2c30fb	0.0420389
195	0xbc860df0	-0.016364068
196	0x3c89b027	0.016807629
197	0x3c40d7d3	0.0117702065
198	0x3ce71424	0.028207846
199	0x3cc7dd32	0.024397466
200	0x3be7b5d2	0.007071235
201	0x3cc5613d	0.024094218
202	0x3c9151a8	0.017739132
203	0x3be022f4	0.0068401042
204	0xb9405927	-0.00018343759
205	0x3d6407db	0.055671554
206	0x3d316fe9	0.043319616
207	0x3d215751	0.039389912
208	0x3c8351a4	0.01603014
209	0x3ce34f8d	0.027747894
210	0x3c639ab4	0.013891865
211	0x3d628e64	0.055311576
212	0x3c6535f1	0.013989911
213	0x3c9fdbbf	0.019513963
214	0x3cd747fd	0.026279444
215	0x3a9a838f	0.0011788475
216	0xbcd677b4	-0.026180126
217	0x3d2c2641	0.04202867
218	0x3d01c483	0.03168155
219	0x3d62151d	0.055195916
220	0xbadf59be	-0.0017040295
221	0x3cbcf7f0	0.023067445
222	0xbc3e0829	-0.011598625
223	0x3d370b1e	0.044688337
224	0x3c612d86	0.013743764
225	0x3b73a255	0.0037175615
226	0x3d375a76	0.044764005
227	0x3c98e3b5	0.018663267
228	0x3d3f05fc	0.046636567
229	0x3c82d539	0.015970813
230	0x3a3e4bb6	0.00072592066
231	0x3cde789d	0.027157122
232	0x3d0310b1	0.03199834
233	0x3d0401a2	0.03222812
234	0x3d028890	0.031868517
235	0x3cd4ecce	0.025991824
236	0x3ce5eea7	0.0280679
237	0x3c126b8e	0.008936776
238	0x3d029894	0.03188379
239	0x3d224e08	0.039625198
240	0x3cb0c7df	0.021579681
241	0xbb2c40df	-0.0026283783
242	0x3d1c602e	0.03817766
243	0x3b41fb58	0.0029599275
244	0x3d815af1	0.06316174
245	0x3cbb2f0e	0.022849586
246	0x3c11c933	0.008898067
247	0x3c871ae3	0.016492313
248	0x3d356d03	0.044293415
249	0x3c8d3e32	0.017241571
250	0x3c853180	0.016258955
251	0x3d2f9869	0.04286996
252	0x3d0ebcf6	0.034848176
253	0xbd16442d	-0.03668611
254	0x3d29acef	0.041424688
255	0x3d5a0ab8	0.05323288

encoder.0.bias f4 [16]
0	0x3e67f974	0.22653753
1	0x3e45e3f1	0.19325234
2	0x3e380600	0.17971039
3	0x3e4c16b8	0.19930542
4	0x3e603aec	0.21897477
5	0x3e50a6b0	0.20376086
6	0x3e58682d	0.2113349
7	0xbe0b5f65	-0.13610609
8	0x3e382030	0.17981029
9	0x3e381cc8	0.17979729
10	0x3e32c778	0.17458904
11	0x3e479511	0.19490458
12	0x3e21eb86	0.15812501
13	0x3e4db5e0	0.20088911
14	0x3e793057	0.24334846
15	0x3e2b16e4	0.16707951

encoder.2.weight f4 [32, 16, 3, 3]
0	0x3c9a52c6	0.018838298
1	0xbd2829ee	-0.041055612
2	0xba73df56	-0.0009302994
3	0x3e1d0eb8	0.15337646
4	0x3dd1464b	0.102184854
5	0x3df71960	0.12065387
6	0x3c1b45c0	0.009477079
7	0x3d21d33b	0.039508086
8	0xbc3bfbcb	-0.011473606
9	0x3c4af46b	0.012387375
10	0x3d8d083e	0.06886338
11	0xbc9ef4b0	-0.019403785
12	0x3dcfadd4	0.10140577
13	0x3d9bbc58	0.07604283
14	0x3da3d834	0.08000222
15	0xbd4b2366	-0.049594305
16	0x3c9c1f90	0.019058019
17	0x3c980c96	0.018560689
18	0xbc650dd6	-0.0139803495
19	0xbca61c70	-0.020277232
20	0x3d8dd1d8	0.0692479
21	0x3e3ea061	0.18615867
22	0x3e04c0d3	0.12964182
23	0x3d907b99	0.070548244
24	0x3d59f523	0.053212296
25	0x3d9092bf	0.070592396
26	0xbb4cbe2b	-0.0031241279
27	0x3d21e633	0.039526176
28	0x3da6b73f	0.0814042
29	0xbd3fd2f3	-0.046832036
30	0x3e0ef9f9	0.13962545
31	0x3de8ec85	0.113732375
32	0x3d36db7f	0.04464292
33	0xbd013f38	-0.03155443
34	0x3d327e98	0.04357776
35	0x3ceef060	0.029167354
36	0xbda381b6	-0.07983725
37	0x3d3220cb	0.043488305
38	0x3d91f426	0.07126646
39	0x3e16ec66	0.14738616
40	0x3e2d4a2e	0.16922829
41	0x3e0c90f2	0.13727167
42	0xbc41baab	-0.01182429
43	0x3c7d0aab	0.015444438
44	0x3d230b93	0.03980596
45	0xbd1c817b	-0.03820942
46	0xbda842ae	-0.08215843
47	0x3b7069ab	0.0036684077
48	0x3db52bfa	0.088462785
49	0x3e099756	0.13436636
50	0x3e4dbcde	0.20091578
51	0xbd9dd7f3	-0.07707205
52	0xbcf8ca60	-0.030369937
53	0x3d87bc5c	0.066277236
54	0xbd893ab7	-0.06700652
55	0x3da3406c	0.07971272
56	0xbd9ac870	-0.07557762
57	0x3d9d7237	0.076878004
58	0x3d9be782	0.07612516
59	0x3e3c22c1	0.18372633
60	0x3d20bbde	0.039241664
61	0x3cbe4260	0.02322501
62	0xbd1ccafb	-0.038279515
63	0xbd0e7b40	-0.03478551
64	0x3c8dfd50	0.017332703
65	0x3da00950	0.07814276
66	0xbee53824	-0.44769394
67	0xbedd7cbe	-0.43259233
68	0xbf0aafae	-0.54174316
69	0x3b61f9ab	0.003448109
70	0xbd673846	-0.05645015
71	0xbda9d7a0	-0.0829308
72	0x396e3000	0.0002271533
73	0xbd6b1643	-0.057394277
74	0xbb4afb80	-0.003097266
75	0x3e5fc1c3	0.21851258
76	0x3d91132d	0.070837356
77	0x3da48488	0.08033091
78	0x3d8542fb	0.06506916
79	0xbd30f026	-0.043197773
80	0xbca6c4e6	-0.02035756
81	0x3d50801b	0.05090342
82	0xbd791083	-0.060806762
83	0x3d267e8e	0.040648036
84	0x3e08d074	0.13360769
85	0x3e25a84d	0.16177483
86	0x3e182b13	0.14860182
87	0xbd63cd53	-0.055615734
88	0x3cb8429b	0.022492697
89	0xbcaab726	-0.020839285
90	0xbcf35a36	-0.029706102
91	0xbd9d76d2	-0.07688679
92	0x39e76c00	0.0004414022
93	0x3d21ce80	0.039503574
94	0x3def65ce	0.116893396
95	0x3e49475e	0.1965613
96	0xbc9a78ab	-0.018856367
97	0xbc79282b	-0.015207331
98	0x3d9edf82	0.077574745
99	0x3d951aa3	0.07280471
100	0xbc940606	-0.018069278
101	0xbd995b9c	-0.07488176
102	0x3e2e31c6	0.17011175
103	0x3df7c4c8	0.1209808
104	0x3d45b17c	0.048264965
105	0x3d9e3354	0.07724634
106	0x3cf647bb	0.0300635
107	0x3d879fb6	0.06622259
108	0x3da18514	0.07886711
109	0xbce0aa80	-0.02742505
110	0x3cb595a6	0.022166084
111	0x3db9c37d	0.090704896
112	0x3da3c1c0	0.07995939
113	0x3de5e0a6	0.11224489
114	0x3d6dea03	0.0580845
115	0x3cf5ed96	0.030020516
116	0xbc49fa0b	-0.012327681
117	0xbc46756b	-0.012112956
118	0x3d985ae4	0.07439211
119	0x3d867826	0.06565885
120	0x3dda95e4	0.106731206
121	0x3e3610c9	0.1777984
122	0x3d823145	0.06357054
123	0x3c5279f6	0.012846461
124	0x3d07b418	0.033130735
125	0xbc0c01a0	-0.008545309
126	0xbbc8a1d6	-0.006122808
127	0x3c90a220	0.017655432
128	0x3cd0b0a0	0.025474846
129	0x3d9e8c12	0.0774156
130	0x3e3015f0	0.17195868
131	0x3e573b51	0.21018721
132	0xbd92fc24	-0.07176998
133	0xbcf44770	-0.02981922
134	0x3d2fe5a6	0.04294362
135	0x3d9a83fa	0.07544704
136	0xbd9cc4cb	-0.07654723
137	0x3d9d5a00	0.07683182
138	0x3e21e834	0.15811235
139	0x3dbfc96f	0.09364592
140	0x3d8fd2bc	0.07022616
141	0x3d237a80	0.039911747
142	0xbc480d76	-0.012210241
143	0x3cbb79e0	0.022885263
144	0x3d0eb31b	0.034838777
145	0x3d8407f2	0.06446828
146	0x3bfe346b	0.0077577136
147	0x3e1025ae	0.14076874
148	0x3e2a3a87	0.16623889
149	0x3d9cf3c8	0.07663685
150	0xbd58cbe0	-0.052928805
151	0x3bf8dcab	0.007594665
152	0x3d35dc66	0.04439964
153	0xbcb067ab	-0.021533808
154	0x3d9ce1e2	0.07660271
155	0x3da0de30	0.07854879
156	0x3e00184e	0.12509272
157	0x3e543020	0.20721483
158	0x3de23590	0.110453725
159	0x3d8d53e0	0.069007635
160	0x3d8da51b	0.06916257
161	0xbd992faf	-0.07479798
162	0xbda8bdd0	-0.08239329
163	0xbd8b8fe4	-0.06814554
164	0xbcf7f7cb	-0.030269524
165	0x3e56dad3	0.20981912
166	0x3e047ec1	0.12938978
167	0x3e21ecd5	0.15813
168	0xbbeb9740	-0.0071896613
169	0xbc03c08b	-0.008041511
170	0x3c4dd9ab	0.012564103
171	0xbd7cdd8b	-0.061734717
172	0xbd89d983	-0.0673094
173	0x3d84aa80	0.06477833
174	0x3e551137	0.20807348
175	0x3dac1186	0.0840178
176	0x3dfaa003	0.12237551
177	0xbbe136ab	-0.006872972
178	0x3d2b85d0	0.04187566
179	0xbd69ca83	-0.057077896
180	0x3d9bf8ff	0.076158516
181	0x3d030fe6	0.031997584
182	0xbd443816	-0.04790505
183	0x3e2d4087	0.16919146
184	0x3e612548	0.21986878
185	0x3e268e11	0.16265132
186	0x3d3a681b	0.04550944
187	0x3c7b0dab	0.015323083
188	0x3d405276	0.04695364
189	0xbda6e80a	-0.08149727
190	0x3ca28a46	0.019841325
191	0x3d5b3d80	0.053525448
192	0x3e5d9d86	0.21642122
193	0x3e2c0ffc	0.16802973
194	0x3e1b2a3f	0.15152834
195	0x3c1ecad6	0.009691915
196	0xbd8b8264	-0.068119794
197	0xbd53fbbe	-0.051753752
198	0x3d8c928c	0.06863889
199	0x3d6bfe20	0.0576154
200	0xbd86d408	-0.065834105
201	0x3e08f8de	0.13376185
202	0x3d9044a9	0.07044346
203	0x3e503e42	0.2033625
204	0xbd9a59c3	-0.07536652
205	0xbd172c3e	-0.036907427
206	0xbd48819e	-0.048951738
207	0xbd2afcc0	-0.041744947
208	0xbd1302fb	-0.035891514
209	0xbd424d2e	-0.047436886
210	0xbd6b1c18	-0.05739984
211	0xbdf54109	-0.11975295
212	0x3d801082	0.062531486
213	0xbc9d71d6	-0.01921932
214	0x3da89874	0.08232203
215	0xbd2dbdf3	-0.042417478
216	0x3d39f946	0.04540374
217	0x3d79f313	0.06102283
218	0xbd8c303e	-0.06845139
219	0x3daab00d	0.0833436
220	0x3d7d8325	0.061892647
221	0x3dfdb55c	0.12388107
222	0xbd1a8ba3	-0.037730824
223	0xbda9a62c	-0.08283648
224	0x3d202666	0.03909912
225	0x3d4adefb	0.049529057
226	0x3c80e730	0.015735239
227	0x3cbd4ee0	0.0231089
228	0x3df3be9d	0.11901591
229	0x3dd1ca56	0.10243671
230	0x3d8c40b0	0.06848276
231	0xbd8e80ac	-0.06958136
232	0xbc59c260	-0.0132909715
233	0x3d8a4c1c	0.06752798
234	0x3c697c8b	0.014250885
235	0x3ac56aab	0.0015061697
236	0x3d0a2d66	0.0337347
237	0x3e0a0c02	0.13481143
238	0x3d84713f	0.064669125
239	0x3d68de3b	0.05685256
240	0xbd944e2a	-0.07241471
241	0xbd647173	-0.055772256
242	0xbd83c62f	-0.06434285
243	0xbd93961e	-0.07206367
244	0x3d1d95c8	0.03847292
245	0x3cb10b8b	0.02161195
246	0x3dcf80d3	0.10131993
247	0x3d9cceca	0.076566294
248	0x3dec2845	0.11531118
249	0xbd8d8e33	-0.06911888
250	0xbd525490	-0.051350176
251	0x3d520803	0.05127717
252	0xbd5dbc5b	-0.054134708
253	0xbd5f28d6	-0.054482304
254	0x3d248388	0.0401645
255	0x3e48e304	0.1961785

encoder.2.bias f4 [32]
0	0x3e0681be	0.1313543
1	0x3e0729fe	0.13199612
2	0x3e4bb65c	0.19893783
3	0x3e355254	0.17707187
4	0x3dcbe0f0	0.09955013
5	0x3e3d5595	0.18489678
6	0x3df7095d	0.12062333
7	0x3e48dbef	0.19615148
8	0x3dfcf937	0.123522215
9	0x3df0fc77	0.11766904
10	0x3de2d707	0.110761695
11	0x3e2a011b	0.16601984
12	0x3e3c86f7	0.1841086
13	0x3dd4a39d	0.10382769
14	0x3de0c7fa	0.109756425
15	0x3dae87a2	0.08521964
16	0x3e412e75	0.18865378
17	0x3dba5c5e	0.09099649
18	0x3e1945d1	0.14968039
19	0x3e4c4728	0.19949019
20	0x3ddf6d75	0.10909549
21	0x3dea6f01	0.114469536
22	0x3e061a42	0.13095954
23	0x3e46385a	0.19357434
24	0x3e5ed53f	0.21761034
25	0x3e160038	0.14648521
26	0x3e62af4c	0.22137183
27	0x3dd8ae61	0.10580135
28	0x3e6536ed	0.22384234
29	0x3e1810b5	0.14850123
30	0x3ddf4e58	0.10903615
31	0x3dd830ed	0.10556207

encoder.4.weight f4 [64, 32, 3, 3]
0	0x3d0ce6ac	0.034399673
1	0x3d548687	0.051886108
2	0xba247a53	-0.0006274331
3	0x3d2007ee	0.039070062
4	0x3e3c9cb5	0.18419154
5	0x3e1b3a22	0.15158895
6	0xb933b915	-0.00017139719
7	0xbaa2f802	-0.0012433531
8	0x3d44bcd6	0.04803165
9	0xbc56d89f	-0.01311317
10	0x3cb9a082	0.022659544
11	0x3c103e88	0.008803971
12	0x3e322ae4	0.17399174
13	0x3e27c0a6	0.16382083
14	0x3e281f10	0.164181
15	0x3cb0e1f4	0.021592118
16	0xbbed7afb	-0.0072473264
17	0x3d268ec8	0.04066351
18	0x3c32d519	0.010915064
19	0x3ab6a4bb	0.0013934592
20	0x3d526a1b	0.05137072
21	0x3dba2556	0.090891525
22	0x3dd421c5	0.103580035
23	0x3e1b7079	0.15179624
24	0xbb198267	-0.0023423673
25	0xba82b6e3	-0.0009972717
26	0x3b382748	0.0028099585
27	0xbcd6b1dd	-0.026207859
28	0xbd1bfc1a	-0.03808222
29	0x3c93bb10	0.018033534
30	0x3ddce55d	0.10785935
31	0x3df429a3	0.11922004
32	0x3e03da2b	0.12876193
33	0xbcd5ceed	-0.026099646
34	0xbbc127be	-0.00589463
35	0x3d435ac1	0.04769397
36	0xbcd96864	-0.026539035
37	0xbbc0284d	-0.005864179
38	0xbcbe8487	-0.023256553
39	0x3e320a87	0.17386828
40	0x3e2feb51	0.1717961
41	0x3dd99a69	0.106251545
42	0xbc574bad	-0.013140601
43	0xbcac1f05	-0.021010885
44	0xbd29bb52	-0.04143841
45	0xbd414153	-0.04718144
46	0x3c43506f	0.011921032
47	0xbd17b57d	-0.037038315
48	0x3ddf23dd	0.10895512
49	0x3e348c63	0.17631678
50	0x3debd891	0.11515916
51	0x3a748739	0.0009328011
52	0xbd1e37e5	-0.038627524
53	0x3d0e5dab	0.034757297
54	0x3a6f98cd	0.00091398956
55	0xba95fd14	-0.0011443221
56	0xbd1e3880	-0.0386281
57	0x3d96566c	0.073407024
58	0x3e311cb8	0.17296112
59	0x3deb2f29	0.114836045
60	0x3d1dd809	0.038536105
61	0xbcddbad2	-0.027066622
62	0x3ba45beb	0.0050158403
63	0xbd4e345f	-0.050342914
64	0xbd4f5dda	-0.050626613
65	0x3bb5e639	0.0055511263
66	0x3e0e23ea	0.13880888
67	0x3e06bbf4	0.13157636
68	0x3daab61a	0.08335514
69	0x3bc5337a	0.0060180994
70	0x3b97e4ce	0.00463543
71	0xbcd86eb9	-0.026419984
72	0xbccf3b7f	-0.025296925
73	0x3d46012c	0.04834096
74	0x3c7f6ea5	0.015590345
75	0x3d983451	0.074318536
76	0x3e34181d	0.17587323
77	0x3de40c1e	0.11135124
78	0xbd3f160c	-0.046651885
79	0x3d0d79d0	0.034539998
80	0xbd65daff	-0.056117054
81	0x3d4fa7e8	0.050697237
82	0x3d2691ec	0.040666506
83	0x3cef7632	0.029231165
84	0x3dfa667a	0.12226577
85	0x3df9c2d8	0.121953666
86	0x3db0b459	0.086281486
87	0x3d0c0017	0.034179773
88	0xbd6d1a4a	-0.0578864
89	0x3d0e63d5	0.034763176
90	0xbd3d7325	-0.04625239
91	0xba27b9e2	-0.0006398243
92	0x3d2b9d26	0.041897915
93	0x3e155397	0.14582668
94	0x3e0ca118	0.13733327
95	0x3df8f111	0.12155355
96	0x3aa093a7	0.0012251035
97	0x3d22697f	0.03965139
98	0xbc5f77a6	-0.013639366
99	0xbc9af798	-0.01891689
100	0xbcb0d609	-0.021586435
101	0xbd229c37	-0.03969976
102	0x3e49dd04	0.19713217
103	0x3e41f2a3	0.18940215
104	0x3df2d625	0.11857251
105	0xbc8081b0	-0.01568684
106	0x3cfed075	0.03110526
107	0x3c5e7424	0.013577495
108	0xbcb2c26f	-0.021821229
109	0xbca073bf	-0.019586442
110	0xb9c14b55	-0.00036867955
111	0x3df03b9e	0.11730121
112	0x3e396923	0.18106513
113	0x3e1434fc	0.14473337
114	0xbcfae911	-0.030628713
115	0xbd5e47b8	-0.054267615
116	0xbc847d5d	-0.01617306
117	0xbd6d41c3	-0.057924043
118	0xbd300d25	-0.042981286
119	0xbb0add71	-0.0021189118
120	0x3c8c0da1	0.017096343
121	0x3d5de798	0.054175943
122	0x3da462c1	0.08026648
123	0x3cb3dc06	0.021955501
124	0x3d05df62	0.032683738
125	0xbbc6004d	-0.0060425163
126	0xbc30c0b5	-0.010788132
127	0x3d559d1d	0.052151788
128	0xbd41ee7e	-0.047346584
129	0x3d8b2a85	0.06795219
130	0x3e186c96	0.14885172
131	0x3db3ec37	0.08785289
132	0xbc88d21b	-0.016701749
133	0x3d69cc82	0.0570798
134	0xbcfdd305	-0.030984411
135	0x3d486513	0.048924517
136	0x3a035fe2	0.0005011541
137	0xbcff89a1	-0.031193556
138	0x3e1cda18	0.15317571
139	0x3dbc6a53	0.09199967
140	0x3dd0c584	0.10193923
141	0x3d6fe7f0	0.058570802
142	0xbc9962e1	-0.018723907
143	0x3c99f109	0.018791692
144	0x3d181288	0.037127048
145	0xbb2a1bff	-0.0025956628
146	0x3bc9d03a	0.0061588557
147	0x3e092373	0.13392429
148	0x3e06c887	0.13162433
149	0x3dcac946	0.09901671
150	0x3d209217	0.039201822
151	0xbd3d7964	-0.046258345
152	0xbd36ac5a	-0.04459796
153	0xbce1b917	-0.027554078
154	0x3cf7cc68	0.030248836
155	0xbca0beb6	-0.019622188
156	0x3e0d1b52	0.13779953
157	0x3dca202a	0.09869416
158	0x3e05e42c	0.13075322
159	0xbc65875e	-0.014009325
160	0x3c7e0bad	0.015505713
161	0xbd2d44fe	-0.042302124
162	0xbbbe620b	-0.0058100275
163	0x3c896b50	0.016774803
164	0x3b3f4b63	0.002918922
165	0x3e1e9217	0.15485416
166	0x3e1476ad	0.14498396
167	0x3de9895c	0.11403152
168	0xbd28cbc6	-0.04120996
169	0x3d097ae3	0.03356446
170	0x3cc62d96	0.024191659
171	0xbb9e4145	-0.004829558
172	0x3cf36faa	0.029716332
173	0x3d323770	0.0435099
174	0x3df3e898	0.11909598
175	0x3e187744	0.14889246
176	0x3dea8507	0.11451154
177	0xbccb2948	-0.024799958
178	0xbcbaf807	-0.022823347
179	0x3d10d567	0.035359766
180	0x3c1d3a9c	0.009596493
181	0x3d4c4432	0.049869724
182	0x3d53b610	0.0516873
183	0x3e0b5219	0.13605537
184	0x3e478b69	0.19486775
185	0x3db798b3	0.08964672
186	0xbd3f9e35	-0.046781737
187	0x3ccfc2d9	0.025361465
188	0x3d6cbeb2	0.05779905
189	0x3d1861fc	0.03720282
190	0xbbb86c39	-0.0056281355
191	0x3c46c3ca	0.012131641
192	0x3dbac5d1	0.09119762
193	0x3e45e0c8	0.19324028
194	0x3d9980ab	0.074952446
195	0x3d41d34c	0.04732065
196	0x3c4bef05	0.012447123
197	0x3cde7402	0.027154926
198	0xbd5fc930	-0.054635227
199	0x3d04701b	0.032333475
200	0xbae89136	-0.0017743472
201	0x3d9b85a7	0.075938515
202	0x3dc6f9a0	0.09715581
203	0x3dc00b72	0.09377183
204	0x3ca3bc7b	0.019987335
205	0x3d4511f6	0.048112832
206	0x3d54cad4	0.051951244
207	0xbd445b42	-0.047938593
208	0xbc067ea6	-0.008208906
209	0xbbcc0b46	-0.00622693
210	0xba061059	-0.00051141303
211	0x3e25d8d0	0.16195989
212	0x3c11ad98	0.008891486
213	0x3c1750aa	0.00923554
214	0xbd3215ff	-0.04347801
215	0x3cbbd295	0.022927562
216	0xbcd4b02a	-0.025962908
217	0xbcfb7ca1	-0.030699076
218	0x3bc75f16	0.006084333
219	0x3dc4bd85	0.096064605
220	0x3df686ac	0.12037405
221	0x3dd24456	0.1026694
222	0xbd0d4dc4	-0.03449799
223	0xbd0e2f0b	-0.034712832
224	0xbd19f9e3	-0.037591826
225	0x3b8d389a	0.004309726
226	0x3d03c424	0.032169476
227	0xbd0b00c8	-0.033936292
228	0x3d8935d8	0.06699723
229	0x3e16ca5d	0.14725633
230	0x3d9f52ae	0.07779442
231	0x3d431880	0.047630787
232	0xbd3fe2cc	-0.04684715
233	0x3c4ea484	0.012612466
234	0x3c9f1541	0.019419314
235	0x3cd95df6	0.026534062
236	0x3d2889b4	0.04114695
237	0x3d9e655b	0.07734176
238	0x3e2ab0e0	0.16669035
239	0x3dfdcee7	0.12392979
240	0xbd0386c6	-0.03211095
241	0xbc2084b0	-0.00979726
242	0xbad02cc1	-0.0015882478
243	0xbc9f7596	-0.019465249
244	0x3c8f9794	0.017528333
245	0x3cdfc52a	0.027315695
246	0x3dfaaeaa	0.12240346
247	0x3e349e57	0.17638527
248	0x3da4b806	0.08042912
249	0xba2e73ec	-0.0006654847
250	0xbc122a88	-0.008921273
251	0x3c22a072	0.009925948
252	0xbd042264	-0.03225936
253	0x3cac60b1	0.0210422
254	0xbd3caad9	-0.04606137
255	0x3e1c6ca1	0.15275814

encoder.4.bias f4 [64]
0	0x3e2cf687	0.16890918
1	0x3e2f1a3c	0.17099851
2	0x3dfbac6e	0.12288748
3	0x3e31bd23	0.17357306
4	0x3e462c4c	0.19352835
5	0x3da62022	0.081115976
6	0x3db907aa	0.09034665
7	0x3d51fd6b	0.05126707
8	0x3db039bd	0.08604763
9	0x3e089779	0.13339032
10	0x3e204569	0.15651478
11	0x3d90acc3	0.07064202
12	0x3dbec645	0.09315161
13	0x3d95f4fd	0.073221184
14	0x3e1a9678	0.15096462
15	0x3e3e5c45	0.18589886
16	0x3e2149af	0.15750764
17	0xbdb250e5	-0.08706836
18	0x3d1b082d	0.037849594
19	0x3e2b8670	0.16750503
20	0x3d7311d2	0.059343167
21	0x3e417e45	0.18895824
22	0x3e1901c8	0.14942086
23	0x3e199121	0.14996769
24	0x3d4b12cd	0.049578477
25	0x3e2d7d77	0.16942392
26	0x3e46c786	0.1941205
27	0xbe142c0b	-0.14469926
28	0x3dfed2ae	0.12442528
29	0x3e2dfe0c	0.16991442
30	0x3dada21d	0.08478186
31	0x3e41ed0f	0.18938087
32	0x3e10fc62	0.14158776
33	0x3d90b6ee	0.07066141
34	0x3d4284ae	0.047489814
35	0x3e0d4230	0.1379478
36	0x3e88799c	0.2665528
37	0x3e001332	0.12507322
38	0x3e1fbab0	0.1559856
39	0x3dfc6812	0.12324537
40	0x3d8861c3	0.066592716
41	0x3dadde15	0.084896244
42	0x3e321883	0.17392163
43	0x3d71d360	0.059039474
44	0x3e33b890	0.17550874
45	0x3da0bf7b	0.07849022
46	0x3e0f8147	0.14014159
47	0x3e30da18	0.17270696
48	0x3d854a6a	0.06508334
49	0x3dc676c7	0.09690624
50	0x3ddaf051	0.10690368
51	0x3dec0a62	0.11525418
52	0xbd60027a	-0.05468986
53	0x3e389af4	0.1802786
54	0x3e226f89	0.1586286
55	0x3d982471	0.07428826
56	0x3e295463	0.16536097
57	0x3e161518	0.14656484
58	0xbcfcaad3	-0.030843174
59	0x3e446668	0.1917969
60	0x3e2972e8	0.1654774
61	0x3e3744c8	0.17897332
62	0x3e13b6d3	0.1442521
63	0x3e4a5637	0.19759451

fc.weight f4 [1, 5888]
0	0x3dc31f78	0.095274866
1	0x3da5d7a1	0.080977686
2	0x3dc611f5	0.09671394
3	0x3db1d3d3	0.086829804
4	0x3db7af9a	0.0896904
5	0x3dc31508	0.09525496
6	0x3dbcc872	0.092179194
7	0x3da236e6	0.07920627
8	0x3daee679	0.08540053
9	0x3d94bd6c	0.07262692
10	0x3db6be6a	0.08923037
11	0x3dab3e13	0.08361449
12	0x3da97dad	0.08275924
13	0x3dbfc772	0.09364213
14	0x3dc1ab53	0.094565056
15	0x3dab1e9c	0.08355448
16	0x3db2f2fd	0.087377526
17	0x3da8a1f9	0.08234019
18	0x3dbce942	0.09224178
19	0x3d9f3b24	0.07774952
20	0x3da6b20d	0.08139429
21	0x3db3672c	0.08759913
22	0x3dc45339	0.09586186
23	0x3da904ae	0.08252846
24	0x3dac5796	0.08415143
25	0x3d9d9f20	0.07696366
26	0x3d983f8f	0.07433998
27	0x3db011f3	0.085971735
28	0x3dbb979f	0.09159779
29	0x3d97e3e2	0.07416512
30	0x3db66966	0.08906822
31	0x3db3f77e	0.0878744
32	0x3da8b21e	0.08237098
33	0x3d9e01dd	0.07715199
34	0x3d991936	0.07475512
35	0x3d954a5d	0.07289574
36	0x3da2f71d	0.07957289
37	0x3db5ee03	0.08883288
38	0x3d798c4c	0.060924813
39	0x3d1a4f92	0.03767354
40	0x3d6dab69	0.058024798
41	0x3cf43e64	0.029814906
42	0x3cea72f3	0.028619265
43	0x3cd4f28d	0.025994563
44	0x3d9387d0	0.072036386
45	0x3da00267	0.07812958
46	0x3db9a09e	0.090638384
47	0x3dbf319a	0.093356326
48	0x3d9913c9	0.07474477
49	0x3db83f59	0.089964576
50	0x3dc27453	0.09494843
51	0x3db8e1e6	0.09027462
52	0x3dc42eff	0.09579276
53	0x3d932ac8	0.07185894
54	0x3dc180d3	0.094483994
55	0x3d95e3b3	0.07318821
56	0x3db56b68	0.08858377
57	0x3db49cac	0.08818945
58	0x3db8be8c	0.09020719
59	0x3dc149a9	0.09437878
60	0x3dae8632	0.085216895
61	0x3dba5c08	0.09099585
62	0x3db0bfc4	0.086303264
63	0x3da33ba3	0.07970359
64	0x3db4d702	0.08830072
65	0x3daf2479	0.085518785
66	0x3da8a40a	0.08234413
67	0x3dc2ed15	0.09517876
68	0x3d9c6abd	0.07637546
69	0x3d9e5c45	0.07732443
70	0x3d8aef01	0.067838676
71	0x3da879df	0.0822637
72	0x3db3ee49	0.08785684
73	0x3da7db22	0.08196093
74	0x3d98e36f	0.074652545
75	0x3da4b1b3	0.08041706
76	0x3da9ee3c	0.08297393
77	0x3d9da416	0.076973125
78	0x3da4f3e6	0.080543324
79	0x3da072f8	0.078344285
80	0x3da9120c	0.08255395
81	0x3d919e2d	0.07110248
82	0x3dc16e92	0.09444918
83	0x3dc2e978	0.09517187
84	0x3da0e3dc	0.07855961
85	0x3d7b71cc	0.061387822
86	0x3d7d0d98	0.061780542
87	0x3d9623af	0.07331025
88	0x3d9eb3b8	0.077491224
89	0x3d9d6b0e	0.07686435
90	0x3d95a92c	0.073076576
91	0x3d980967	0.07423668
92	0x3dbf93cc	0.09354362
93	0x3da00307	0.078130774
94	0x3d952f45	0.072844066
95	0x3da50c3d	0.08058975
96	0x3db1b20c	0.08676538
97	0x3dadcf08	0.08486754
98	0x3dc97f34	0.09838715
99	0x3da88dec	0.082301944
100	0x3da401bc	0.08008143
101	0x3db78e0a	0.08962639
102	0x3dac3906	0.08409314
103	0x3dc3f1e9	0.09567625
104	0x3da22661	0.079174764
105	0x3db6f374	0.08933154
106	0x3da5dc32	0.080986395
107	0x3dab5c16	0.083671734
108	0x3d9b3f85	0.07580475
109	0x3d9f7334	0.07785645
110	0x3d944d66	0.07241325
111	0x3dac3635	0.08408777
112	0x3da12cd8	0.078698814
113	0x3da0b9ac	0.07847914
114	0x3d9b3ba1	0.07579733
115	0x3da6d9db	0.081470214
116	0x3d9a1ef7	0.07525437
117	0x3db23df8	0.08703226
118	0x3dbe8141	0.09301997
119	0x3db51f65	0.08843879
120	0x3dba6b28	0.0910247
121	0x3d9cfabc	0.07665011
122	0x3d99cd39	0.07509846
123	0x3dc29901	0.095018394
124	0x3dade887	0.08491617
125	0x3db3abba	0.087729886
126	0x3d92839c	0.07154009
127	0x3d9fe5be	0.07807492
128	0x3dc3afd2	0.095550194
129	0x3d92553a	0.07145162
130	0x3d733854	0.05937989
131	0x3d0b473b	0.034003478
132	0x3d3b6d14	0.045758322
133	0x3d649328	0.0558044
134	0x3c73cc49	0.014880248
135	0x3cc0ae5d	0.023520643
136	0x3d79d925	0.0609981
137	0x3db3762b	0.08762773
138	0x3da2e4d2	0.079538
139	0x3d9a8c8b	0.07546338
140	0x3db8cbf4	0.09023276
141	0x3db2b31e	0.0872557
142	0x3da20174	0.079104334
143	0x3da9b8a7	0.08287173
144	0x3dc32adf	0.095296614
145	0x3d901332	0.07034911
146	0x3da6d67a	0.08146377
147	0x3d9a1389	0.07523257
148	0x3da25e02	0.07928087
149	0x3dc1c9c8	0.09462315
150	0x3da8a20c	0.08234033
151	0x3daffc6b	0.08593067
152	0x3d9f5598	0.077799976
153	0x3db92462	0.090401426
154	0x3daff265	0.08591155
155	0x3d96dd28	0.07366401
156	0x3d9907a0	0.074721575
157	0x3da5eef2	0.08102216
158	0x3dad4258	0.0845992
159	0x3da07825	0.07835416
160	0x3dad24f0	0.08454311
161	0x3d9f688d	0.07783613
162	0x3d9aa879	0.07551665
163	0x3dc14fb1	0.09439028
164	0x3d93a9ec	0.072101444
165	0x3dab5f93	0.08367839
166	0x3db538e1	0.088487394
167	0x3da29af9	0.07939715
168	0x3d97caa5	0.07411698
169	0x3dbab0ef	0.09115779
170	0x3da9a1ee	0.08282839
171	0x3d8e199f	0.069384806
172	0x3d8d1b23	0.068899415
173	0x3dba4c2d	0.090965606
174	0x3db04dd7	0.08608597
175	0x3db5e196	0.08880918
176	0x3da426fc	0.08015248
177	0x3d8452df	0.06461119
178	0x3d851667	0.064984135
179	0x3d8863af	0.06659638
180	0x3d914747	0.07093673
181	0x3db137f3	0.086532496
182	0x3daeb8e8	0.08531362
183	0x3db347e3	0.08753946
184	0x3dc51c97	0.09624594
185	0x3d98163f	0.07426118
186	0x3da78688	0.08179957
187	0x3da0e592	0.07856287
188	0x3dbc7a1e	0.092029795
189	0x3da216e8	0.07914525
190	0x3dc3dd37	0.09563678
191	0x3dc19edb	0.094541274
192	0x3da1f0c7	0.07907253
193	0x3d981388	0.074256
194	0x3d96325f	0.07333826
195	0x3d9bc54e	0.07605992
196	0x3da965f7	0.082714014
197	0x3dbce850	0.092239976
198	0x3db71c8a	0.0894099
199	0x3db125dc	0.08649799
200	0x3da1bc58	0.07897252
201	0x3da6ad19	0.081384845
202	0x3dc491a9	0.09598095
203	0x3db09091	0.08621324
204	0x3da6eb1b	0.081503116
205	0x3dad8502	0.08472635
206	0x3dc89b33	0.09795227
207	0x3dc48011	0.09594739
208	0x3da46421	0.080269106
209	0x3dac1d03	0.08403971
210	0x3db04146	0.086062
211	0x3dadd1b3	0.084872626
212	0x3dac1a9a	0.08403511
213	0x3dc3cb5c	0.09560272
214	0x3dac9fae	0.08428894
215	0x3dace31b	0.084417544
216	0x3dc39bb3	0.09551182
217	0x3d9fee60	0.07809138
218	0x3da3e068	0.080017865
219	0x3d934c56	0.07192294
220	0x3dab6768	0.083693326
221	0x3db9e104	0.090761214
222	0x3d855b8c	0.06511602
223	0x3d447a8b	0.04796843
224	0x3d6880d2	0.056763478
225	0x3cfe8a13	0.031071698
226	0x3c7e291d	0.015512732
227	0x3cb027f3	0.021503424
228	0x3d64b276	0.055834256
229	0x3da6692d	0.081255294
230	0x3da7f41a	0.082008556
231	0x3da93075	0.082611956
232	0x3db5a50c	0.08869371
233	0x3db9b172	0.09067048
234	0x3d97c6bf	0.07410955
235	0x3dc5531c	0.096349925
236	0x3d98e7ff	0.07466125
237	0x3d9f09f7	0.077655725
238	0x3d94d28b	0.072667204
239	0x3dab4f10	0.08364689
240	0x3dacfd10	0.08446705
241	0x3d95ada1	0.07308508
242	0x3db59f84	0.08868316
243	0x3daceb7a	0.08443351
244	0x3dba56a7	0.09098559
245	0x3dbbd68f	0.09171783
246	0x3d9ebe90	0.07751191
247	0x3d9e8554	0.07740274
248	0x3d9a33fd	0.07529447
249	0x3d9d27de	0.0767362
250	0x3da24513	0.07923331
251	0x3dad69d2	0.08467449
252	0x3db18f7b	0.08669945
253	0x3db43da0	0.088008165
254	0x3d8fa21f	0.07013344
255	0x3d931684	0.07182029
